proyecto_final/model_ex_1.pt (torch, 181163 bytes, 13 tensors)

weight f4 [4221, 10]
0.0 0.0 0.0 0.0 0.0 0.0 0.0 0.0
0.0 0.0 -0.519316 0.7551631 -0.6283838 -0.7265757 -0.10280217 0.318277
0.30707383 1.7561622 -1.794528 -0.9462416 -0.15219139 -0.855132 0.1651642 -0.4343077
0.72875994 -0.28160626 1.15063 0.6850656 -0.5209482 1.7567254 0.781888 2.4562294
0.66211236 0.68026227 -0.9554703 -1.3425071 -0.49433663 -0.5814317 0.8383331 -1.1192323
-0.54642004 0.907441 0.6070892 0.8484895 1.4333191 0.6438502 -1.020388 -0.15006696
-0.20369658 0.15893817 1.7971966 -0.085091695 0.9841847 0.08249209 -0.7335912 1.1997597
-0.092915066 -0.16817906 0.6908794 -0.34505004 0.5391972 0.552836 -0.8118744 -0.9152468
0.08222849 1.0442941 -1.2834276 1.4097079 0.2929687 -0.420088 -0.4975354 0.5580902
-0.07875173 0.6815652 1.0870943 1.890036 0.47489735 1.8374789 -0.5504395 -1.5575476
-0.23850249 -1.3755319 1.2516217 0.16395019 0.047767427 1.6929626 -0.87793404 -0.7424326
0.5910045 -0.32066765 -0.30753803 -0.36746824 0.1479663 -1.8949722 1.093148 -1.5885594
1.2979072 0.873046 0.47799367 0.5551565 -0.36737555 0.18389523 -1.0959018 -1.3183417
-1.6288309 -1.3356231 0.36734754 -1.2670158 -1.342159 0.84005183 -0.8823539 -1.8260697
0.82654506 0.5971899 -1.9153044 -0.13050777 0.9503123 1.9606503 0.93479085 -0.9278202
-0.6800483 1.2120073 -0.4694127 -0.12433234 -0.37482968 3.2669566 -0.42794517 0.95131963
-0.45030126 0.8744334 -0.50764924 -0.22846074 -1.6656487 -0.18866542 0.34277165 0.2997554
-0.6758748 -1.4448749 0.5057856 0.5842662 0.52678376 -0.06199182 -0.94159824 -1.0872141
-0.6694457 -0.29100436 -0.16084051 0.5139614 1.1318442 1.2451963 -0.64691377 -0.828019
-1.3979876 1.1746632 0.092698805 -0.4149492 1.2363234 0.13674915 1.120915 1.2541606
-0.3825312 -0.24835809 -0.50227934 0.74083495 1.4201516 -1.8757223 -0.8601159 0.94923097
1.0380193 -0.32328904 0.22341463 1.0483623 -1.4581542 0.5683784 -0.6236854 0.27768597
0.16934542 -0.59108067 1.1076624 0.89704436 1.8843226 -0.012888955 0.40997136 0.658272
0.5319805 -1.0203049 -2.2205384 1.6257867 1.6643106 -0.56623304 -0.6101877 -0.85881996
0.32869795 -0.596415 1.1506381 0.78801334 1.1741295 -0.96246564 1.6678324 0.6538421
1.0637736 -0.29837465 -0.12178208 0.9761687 1.3565319 0.84116894 0.97097164 1.7441252
0.21957476 0.2848694 -0.71196574 0.99904245 -1.9902494 -1.3401989 0.20698406 0.38672647
-0.694208 -1.570164 -0.62923986 1.4589583 1.3988357 -0.27683768 0.041491173 -0.41378078
0.5210823 -0.96420586 1.6044726 0.7211157 0.60595196 1.248016 0.9675777 -0.9518247
-0.98337466 -1.410239 0.24202982 0.7766543 -0.71844137 -2.0563395 0.38263512 -1.0250657
-0.9695465 -0.93542665 -0.221946 -0.42207435 1.610366 1.0216091 1.5077078 -0.13002877
-1.0516585 -1.6611203 -0.6378353 0.8722808 -0.95395124 -2.2849936 0.11523264 -0.06415621
00000000: 0000 0000 0000 0000 0000 0000 0000 0000
00000010: 0000 0000 0000 0000 0000 0000 0000 0000
00000020: 0000 0000 0000 0000 e5f1 04bf 5e52 413f
00000030: c3dd 20bf dd00 3abf f289 d2bd 34f5 a23e
00000040: c838 9d3e ecc9 e03f 18b3 e5bf e43c 72bf
00000050: 0fd8 1bbe eee9 5abf ce20 293e 945d debe
00000060: 0390 3a3f b22e 90be d847 933f 7660 2f3f
00000070: dc5c 05bf 61dc e03f d029 483f dd32 1d40
00000080: 3280 293f ab25 2e3f b499 74bf 46d7 abbf
00000090: b119 fdbe b5d8 14bf ff9c 563f 0143 8fbf
000000a0: 2fe2 0bbf 0e4e 683f 336a 1b3f 9c36 593f
000000b0: 0077 b73f 5ed3 243f 139c 82bf 27ab 19be
000000c0: d695 50be b0c0 223e 8a0a e63f 8e44 aebd
000000d0: 87f3 7b3f 9df1 a83d a2cc 3bbf ba91 993f
000000e0: 414a bebd 2237 2cbe 79dd 303f 66aa b0be
000000f0: d408 0a3f a986 0d3f 00d7 4fbf 9d4d 6abf
00000100: 6967 a83d 6eab 853f 5b47 a4bf 4f71 b43f
00000110: feff 953e c615 d7be f6bc febe 00df 0e3f
00000120: 9648 a1bd 0f7b 2e3f e825 8b3f b3ec f13f
00000130: bf25 f33e 8232 eb3f 9ae9 0cbf b85d c7bf
00000140: ff39 74be 6e11 b0bf 2435 a03f 8fe2 273e
00000150: c7a7 433d 00b3 d83f 49c0 60bf 1010 3ebf
00000160: 124c 173f 8d2e a4be a075 9dbe cc24 bcbe
00000170: 7a84 173e 738e f2bf 46ec 8b3f ea55 cbbf
00000180: d321 a63f f17f 5f3f 96bb f43e bd1e 0e3f
00000190: a618 bcbe 084f 3c3e 8346 8cbf 6cbf a8bf
000001a0: 887d d0bf b3f5 aabf fa14 bc3e 932d a2bf
000001b0: decb abbf a30d 573f f2e1 61bf a7bc e9bf
000001c0: 7598 533f 70e1 183f b228 f5bf d4a3 05be
000001d0: ab47 733f 97f6 fa3f 744e 6f3f a085 6dbf
000001e0: a517 2ebf 0e23 9b3f dd56 f0be f4a1 febd
000001f0: ade9 bfbe d115 5140 a11b dbbe af89 733f
00000200: e38d e6be deda 5f3f 4df5 01bf 9df1 69be
00000210: fa33 d5bf 8231 41be c47f af3e 8a79 993e
00000220: 2206 2dbf a9f1 b8bf 2a7b 013f 7892 153f
00000230: 4ddb 063f 22eb 7dbd 950c 71bf d529 8bbf
00000240: cb60 2bbf 86fe 94be 60b3 24be f992 033f
00000250: 45e0 903f 9862 9f3f 249c 25bf 0ef9 53bf
00000260: 42f1 b2bf 5d5b 963f dfd8 bd3d 3974 d4be
00000270: d83f 9e3f f807 0c3e 257a 8f3f 5688 a03f
00000280: 21db c3be 9551 7ebe 6195 00bf 5ca7 3d3f
00000290: 87c7 b53f ab17 f0bf 8e30 5cbf cd00 733f
000002a0: d1dd 843f 2486 a5be cec6 643e bc30 863f
000002b0: cca4 babf 3f81 113f d9a9 1fbf db2c 8e3e
000002c0: e368 2d3e 1051 17bf e2c7 8d3f b3a4 653f
000002d0: 7c31 f13f 322c 53bc c4e7 d13e 8484 283f
000002e0: e02f 083f 5a99 82bf 4d1d 0ec0 c719 d03f
000002f0: 2108 d53f a6f4 10bf 4335 1cbf a0db 5bbf
00000300: 194b a83e a7ae 18bf 1c48 933f 3ebb 493f
00000310: e049 963f 2664 76bf 887b d53f 3262 273f
00000320: bc29 883f 90c4 98be e268 f9bd 31e6 793f
00000330: d6a2 ad3f d956 573f 9991 783f 7f3f df3f
00000340: 35d8 603e 67da 913e 6343 36bf 3fc1 7f3f
00000350: 7ec0 febf a38b abbf a1f3 533e 0301 c63e
00000360: 9eb7 31bf 22fb c8bf dd15 21bf 25bf ba3f
00000370: 0c0d b33f abbd 8dbe a6f2 293d 13db d3be
00000380: a665 053f 32d6 76bf 5c5f cd3f 0a9b 383f
00000390: ab1f 1b3f fdbe 9f3f 2cb3 773f c9aa 73bf
000003a0: 71be 7bbf b682 b4bf aad6 773e d1d2 463f
000003b0: c6eb 37bf 119b 03c0 c0e8 c33e 5a35 83bf
000003c0: 3334 78bf 1f78 6fbf d045 63be 211a d8be
000003d0: 7920 ce3f 16c4 823f 92fc c03f 4326 05be
000003e0: bf9c 86bf 979f d4bf 2d49 23bf cb4d 5f3f
000003f0: 2636 74bf 563d 12c0 17ff eb3d 5564 83bd

weight_ih_l0 f4 [30, 10]
0.030579552 -0.20132375 -0.2728053 -0.25246525 0.031332657 0.30141294 0.14935094 -0.08847731
0.15955798 0.03331135 0.03641455 0.16892254 0.14591396 0.15359284 0.20614737 0.24477962
-0.16783865 -0.25620532 -0.11051028 0.27531043 0.046208456 0.18223496 -0.070727766 -0.11314181
0.24977896 0.22302765 0.014676477 -0.07682773 0.05475736 0.16806668 -0.18260159 -0.23343273
-0.073837206 0.30285373 -0.017042963 0.16240582 -0.16793773 0.28114304 -0.17874336 -0.17965047
-0.0044746064 0.08220663 -0.26385736 -0.24529587 -0.30514455 -0.1286871 0.03252978 0.28832975
0.028546598 0.01748768 -0.26717022 -0.22281176 -0.08657577 -0.14038654 0.2863842 -0.054313563
-0.07790714 -0.040679753 0.26940116 -0.1760681 0.18612954 -0.020789806 0.116877414 0.24005903
0.16149661 0.06293949 0.31360093 0.052558944 -0.22415268 -0.07561199 -0.106980264 -0.07470433
-0.098827064 0.18461928 -0.14763762 0.26669052 0.019024875 -0.24124393 -0.21307331 -0.2968194
0.06443714 -0.13589276 0.0651966 -0.2695918 -0.13344327 -0.100290895 -0.1259836 -0.012975602
0.095832095 0.046304114 -0.21307631 0.053208735 -0.29743898 -0.2918012 0.16865401 0.12330704
-0.26918092 0.287633 0.22573203 -0.0031288299 0.25122154 -0.10572818 -0.08912546 -0.11905235
0.08320859 0.057041246 0.3001086 -0.13112713 -0.3114613 0.08927935 -0.08204208 0.0049210577
-0.24014735 -0.03336525 0.115064435 -0.23700628 -0.1990697 0.2109719 -0.07676568 -0.03981581
0.18906161 0.049391862 0.034255628 0.090170205 0.16936405 0.15099283 0.28709242 -0.27262637
-0.09285277 0.24120522 -0.24025881 0.25913134 -0.2457641 -0.29457968 -0.103339665 0.06617474
0.1428323 0.16865803 0.29207525 -0.26484364 -0.18103552 0.17408161 -0.12184964 0.14442357
-0.012518296 0.3134318 -0.040499173 -0.24347183 0.3024139 0.24749075 0.10688533 0.08470563
-0.096163474 -0.08897556 -0.10791429 0.26425603 -0.025845546 0.038274895 -0.045418005 -0.2689119
0.3121247 -0.29608732 0.03327111 0.19717523 -0.2434853 -0.1937959 0.2763304 0.018527046
0.065378 -0.09769722 -0.068714954 -0.2937264 0.15896933 0.08041489 -0.30549645 0.03260704
0.3148778 -0.05707332 0.218439 0.26090822 -0.20641652 -0.22676094 0.15610045 -0.2011394
0.08097441 -0.007434507 -0.13245055 -0.1440896 0.14956942 0.23069046 -0.17724845 0.06123333
-0.088411935 -0.09385456 -0.18202482 0.07804202 -0.19631268 -0.09231944 -0.026888506 0.2768464
0.17321177 0.18302457 0.08922131 0.16855398 0.20882665 -0.19732645 -0.11117639 0.24838151
0.111372575 0.05555109 -0.2763911 0.0929276 0.26570538 0.24022119 -0.17570731 0.2199455
-0.24754512 -0.04517837 0.22284293 -0.13183592 0.023009256 0.23499449 0.18655537 -0.1430849
-0.18410952 0.24642928 -0.28440642 0.27451506 0.23089166 -0.2596916 -0.2985108 -0.064295
0.015828572 0.2663205 -0.040159915 0.31258178 -0.22513351 -0.13309325 0.1507767 -0.22082208
-0.26544297 -0.18779269 -0.015448875 0.077172756 0.02925062 -0.27546355 0.02290553 0.09484007
-0.17143887 0.10978995 -0.15409692 -0.1235245 -0.08308925 0.26882985 0.12991227 -0.037132975
00000000: f881 fa3c d027 4ebe 23ad 8bbe 2043 81be
00000010: ac56 003d cc52 9a3e 74ef 183e 9833 b5bd
00000020: 2b63 233e 7b71 083d 6c27 153d 08fa 2c3e
00000030: 786a 153e 7147 1d3e 4c18 533e 82a7 7a3e
00000040: e5dd 2bbe 582d 83be 3753 e2bd 7df5 8c3e
00000050: 1445 3d3d cd9b 3a3e b8d9 90bd e5b6 e7bd
00000060: 0ec6 7f3e 5c61 643e 9b75 703c db57 9dbd
00000070: 4149 603d ac19 2c3e e9fb 3abe fd08 6fbe
00000080: f637 97bd a50f 9b3e af9d 8bbc b64d 263e
00000090: def7 2bbe fbf1 8f3e 8008 37be 4bf6 37be
000000a0: b89f 92bb f35b a83d 5018 87be d72e 7bbe
000000b0: e83b 9cbe 8dc6 03be f23d 053d f59f 933e
000000c0: 8eda e93c 5342 8f3c 89ca 88be c428 64be
000000d0: a34e b1bd 7dc1 0fbe f3a0 923e e677 5ebd
000000e0: c78d 9fbd d09f 26bd f3ee 893e 324b 34be
000000f0: be98 3e3e 624f aabc 6d5d ef3d 09d2 753e
00000100: 5e5f 253e 6be6 803d 4d90 a03e 0c48 573d
00000110: 4888 65be 76da 9abd 7818 dbbd 95fe 98bd
00000120: d865 cabd d60c 3d3e 512e 17be a98b 883e
00000130: 0eda 9b3c a608 77be e42f 5abe b6f8 97be
00000140: 9ff7 833d 7927 0bbe cc85 853d f007 8abe
00000150: 5aa5 08be 5065 cdbd d801 01be 9f97 54bc
00000160: 9e43 c43d 62a9 3d3d ad30 5abe 67f1 593d
00000170: ec49 98be f866 95be a3b3 2c3e 6788 fc3d
00000180: 15d2 89be a244 933e 4c26 673e 0e0d 4dbb
00000190: 1ca0 803e 0488 d8bd 6987 b6bd b8d1 f3bd
000001a0: 4469 aa3d 15a4 693d d6a7 993e 3146 06be
000001b0: db77 9fbe 18d8 b63d ae05 a8bd d340 a13b
000001c0: 30e9 75be 00aa 08bd e7a6 eb3d c6b1 72be
000001d0: edd8 4bbe 0509 583e 5337 9dbd e715 23bd
000001e0: 5e99 413e 1f4f 4a3d a14f 0c3d 28ab b83d
000001f0: c56d 2d3e dd9d 1a3e c7fd 923e af95 8bbe
00000200: 9829 bebd 80fe 763e 6806 76be ddac 843e
00000210: 96a9 7bbe 26d3 96be bfa3 d3bd 9f86 873d
00000220: a142 123e b1b4 2c3e e38a 953e 9699 87be
00000230: 6061 39be 7342 323e 4e8c f9bd c6e3 133e
00000240: 8a19 4dbc 227a a03e 76e2 25bd ae50 79be
00000250: ffd5 9a3e 376e 7d3e b2e6 da3d 257a ad3d
00000260: 5bf1 c4bd d238 b6bd 2b02 ddbd 914c 873e
00000270: 0aba d3bc 23c6 1c3d 3b08 3abd d2ae 89be
00000280: cfce 9f3e c298 97be 4a47 083d 4ee8 493e
00000290: 3654 79be 6f72 46be 2e7b 8d3e 08c6 973c
000002a0: e7e4 853d 7b15 c8bd 6dba 8cbd 4f63 96be
000002b0: dbc8 223e 90b0 a43d 086a 9cbe f68e 053d
000002c0: aa37 a13e b7c5 69bd 79ae 5f3e c395 853e
000002d0: da5e 53be 0534 68be ccd8 1f3e 7df7 4dbe
000002e0: e9d5 a53d 2a9d f3bb 1ea1 07be 398c 13be
000002f0: ba28 193e 1f3a 6c3e 9e80 35be cdcf 7a3d
00000300: 5111 b5bd d236 c0bd b764 3abe 7fd4 9f3d
00000310: 3106 49be f911 bdbd 4945 dcbc d0be 8d3e
00000320: 6d5e 313e cb6a 3b3e aab9 b63d 6a99 2c3e
00000330: a7d6 553e f20f 4abe 72b0 e3bd b957 7e3e
00000340: 4e17 e43d 8a89 633d 2283 8dbe d350 be3d
00000350: 890a 883e 8bfc 753e 9eec 33be 6539 613e
00000360: 787c 7dbe f40c 39bd f030 643e ffff 06be
00000370: e87d bc3c 65a2 703e 5f08 3f3e d984 12be
00000380: 3587 3cbe f557 7c3e b89d 91be 3d8d 8c3e
00000390: dd6e 6c3e 4cf6 84be 68d6 98be 19ad 83bd
000003a0: ecaa 813c 295b 883e b97e 24bd b80a a03e
000003b0: 6689 66be 9949 08be 3565 1a3e 2f1f 62be
000003c0: 24e8 87be ba4c 40be 471d 7dbc c00c 9e3d
000003d0: ff9e ef3c 8f09 8dbe 61a4 bb3c 833b c23d
000003e0: ac8d 2fbe 8ed9 e03d 95cb 1dbe 6afa fcbd
000003f0: b22a aabd 11a4 893e b907 053e bf18 18bd

weight_hh_l0 f4 [30, 10]
0.2766076 -0.2263542 0.047479324 -0.16969807 -0.27652988 -0.17876354 -0.1262646 -0.05663689
0.08040417 0.046543777 0.29117188 0.19250698 -0.13486224 -0.048726913 0.23936225 0.16424266
0.06635729 0.1887582 0.018430738 0.26818138 0.0043864334 -0.09601215 -0.13345197 0.114720486
-0.028072681 -0.14834791 -0.13671443 0.1457198 -0.11925703 -0.23950835 -0.15551397 -0.037049852
0.119849145 -0.010605664 -0.16507494 0.31433883 -0.22399268 0.16354975 0.067032665 -0.04476465
0.20843859 -0.016626345 -0.19582316 0.0871571 -0.027445277 0.16887924 0.067643516 0.046730172
-0.29939282 0.07108558 -0.21880123 0.09416321 0.08295593 0.30461475 0.056769837 -0.00073052116
0.27853182 0.18144259 -0.040662028 -0.24512562 -0.056865156 -0.3044836 -0.28830773 0.19745073
-0.28445727 0.3140808 0.08675018 -0.26243383 -0.22177331 0.26682022 -0.13212055 -0.09972471
0.06255481 -0.06509009 -0.06269646 -0.15692332 -0.20812684 0.20637378 0.26928064 -0.26603678
0.17911398 -0.30866027 0.2401217 0.09873271 -0.20657413 0.26077327 -0.095240705 0.2935768
-0.1772221 0.220978 0.048330724 -0.1421713 0.015783245 -0.0285239 -0.21368977 0.08865368
0.073639885 -0.11639071 -0.17084205 -0.24281837 0.19020891 -0.035684265 0.18907697 -0.12154101
-0.1145384 -0.28313917 0.1992022 0.0274042 0.020996252 0.23495427 0.034950968 -0.19483097
-0.10547352 0.27936578 -0.23482424 0.2085228 -0.29967865 0.03975028 -0.0021256304 0.31100073
-0.06516538 0.31321424 0.26551253 -0.2706697 -0.0076313885 0.2851454 0.10078451 0.009121935
-0.038795814 0.06517086 0.18223296 -0.18889478 0.07532288 0.2977711 0.030598462 0.17838866
-0.03191848 -0.17542654 0.2624585 0.20828733 0.18643664 0.23312554 0.29612505 -0.012386302
-0.08521086 0.09958654 -0.24045192 -0.03758206 0.2108512 -0.13879693 -0.18475768 0.23936614
0.115184225 -0.12454246 0.26334843 -0.118358396 -0.054284174 0.17497443 0.14406765 -0.112102315
-0.22027253 0.27403626 0.18375935 -0.30177498 0.26303852 -0.13960466 -0.10054355 0.053613342
0.114031844 -0.24232455 0.15052694 0.20141433 -0.09586229 0.28404358 -0.30635732 0.22024108
0.20576055 0.19809824 0.24190901 -0.17920117 -0.04113702 0.16919091 -0.3003338 -0.25457567
-0.07529001 0.065498136 -0.2767916 0.20876792 -0.14207698 -0.006064068 -0.2697908 -0.20822577
-0.042792466 -0.03283857 -0.022929555 0.11536128 0.18689601 0.19329411 0.23846519 0.09422807
-0.018345822 -0.100692436 -0.1957586 -0.15954044 0.28523368 0.0053425157 -0.03914286 0.1495121
0.13394867 0.2100272 0.24700938 0.03695157 -0.019067666 0.22685485 -0.206723 0.054866113
-0.294595 0.12417589 0.15916184 -0.002511301 -0.1510892 0.09650784 0.18488812 0.0023297814
0.020938108 0.2680568 0.18362252 -0.0699582 -0.25827104 0.30034733 0.046852656 -0.29345283
0.0771474 -0.15226972 0.21141486 0.1645268 -0.15060137 0.21084103 0.11723322 -0.08480093
-0.2745366 -0.00087980006 0.20780666 -0.081027 -0.019771729 0.1370465 0.0061792606 -0.010570394
-0.072083265 0.2697853 0.2955237 -0.22904189 -0.26286507 -0.15252088 -0.17644276 0.08252625
00000000: 839f 8d3e 65c9 67be ae79 423d 55c5 2dbe
00000010: 5395 8dbe ca0d 37be 824b 01be 15fc 67bd
00000020: f1aa a43d b0a4 3e3d 7b14 953e 8d20 453e
00000030: 5419 0abe df95 47bd 611b 753e 3a2f 283e
00000040: 55e6 873d d449 413e 0ffc 963c 124f 893e
00000050: 12bc 8f3b 05a2 c4bd a2a7 08be 93f2 ea3d
00000060: aef8 e5bc 84e8 17be defe 0bbe 9237 153e
00000070: 083d f4bd ad41 75be 0e3f 1fbe 96c1 17bd
00000080: 7873 f53d 61c3 2dbc 6809 29be 05f1 a03e
00000090: 565e 65be 9679 273e 6c48 893d 235b 37bd
000000a0: ed70 553e f933 88bc de85 48be 6c7f b23d
000000b0: ebd4 e0bc aeee 2c3e af88 8a3d 2368 3f3d
000000c0: 044a 99be 5195 913d 6e0d 60be a4d8 c03d
000000d0: cce4 a93d 77f6 9b3e 7d87 683d 7280 3fba
000000e0: b99b 8e3e 16cc 393e 3a8d 26bd 3602 7bbe
000000f0: 70eb 68bd 46e5 9bbe 129d 93be 8630 4a3e
00000100: 62a4 91be 33cf a03e 14aa b13d ba5d 86be
00000110: 8b18 63be a99c 883e 9c4a 07be 783c ccbd
00000120: bc1c 803d f44d 85bd 0067 80bd 82b0 20be
00000130: 341f 55be a653 533e 27df 893e f935 88be
00000140: a869 373e b808 9ebe 77e2 753e 6034 ca3d
00000150: 2b88 53be 1384 853e 8f0d c3bd b34f 963e
00000160: b679 35be 0f48 623e 70f6 453d 5a95 11be
00000170: dd4b 813c f4aa e9bc 7ed1 5abe 1090 b53d
00000180: 82d0 963d 415e eebd 38f1 2ebe 61a5 78be
00000190: 20c6 423e aa29 12bd 659d 413e 7eea f8bd
000001a0: 1c93 eabd 9ef7 90be a9fb 4b3e c67e e03c
000001b0: 5500 ac3c da97 703e bf28 0f3d c581 47be
000001c0: 8002 d8bd 0809 8f3e c475 70be 0087 553e
000001d0: 7b6f 99be 31d1 223d 294e 0bbb 7d3b 9f3e
000001e0: 6d75 85bd 9e5d a03e 42f1 873e 3895 8abe
000001f0: ba10 fabb 94fe 913e 1c68 ce3d 2b74 153c
00000200: 5ce8 1ebd 4d78 853d 479b 3a3e a26d 41be
00000210: e242 9a3d 7475 983e a0a9 fa3c 84ab 363e
00000220: f4bc 02bd 04a3 33be f660 863e 4649 553e
00000230: 3fe9 3e3e 76b8 6e3e b49d 973e ebef 4abc
00000240: 0883 aebd 07f4 cb3d 0739 76be a5ef 19bd
00000250: 61e9 573e c820 0ebe 1e31 3dbe 661c 753e
00000260: b5e5 eb3d 1e10 ffbd 9bd5 863e e365 f2bd
00000270: 1559 5ebd 7f2c 333e 7886 133e e695 e5bd
00000280: 1f8f 61be 7b4e 8c3e 692b 3c3e 4082 9abe
00000290: fcac 863e 86f4 0ebe c7e9 cdbd aa99 5b3d
000002a0: 8789 e93d ed23 78be bc23 1a3e 8f3f 4e3e
000002b0: 7353 c4bd 296e 913e deda 9cbe e186 613e
000002c0: e5b2 523e 44da 4a3e ffb6 773e 8380 37be
000002d0: 4b7f 28bd 6240 2d3e 5ac5 99be be57 82be
000002e0: a631 9abd e323 863d a1b7 8dbe 42c7 553e
000002f0: a17c 11be 17b5 c6bb 0522 8abe 2339 55be
00000300: 2747 2fbd bd81 06bd c3d6 bbbc 8942 ec3d
00000310: ab61 3f3e e4ee 453e 3830 743e a5fa c03d
00000320: fa49 96bc d637 cebd f174 48be 925e 23be
00000330: 260a 923e 4510 af3b 4354 20bd b319 193e
00000340: d729 093e 5f11 573e 07f0 7c3e 885a 173d
00000350: cb33 9cbc a34c 683e 32af 53be 4abb 603d
00000360: 28d5 96be ee4f fe3d 52fb 223e a494 24bb
00000370: 21b7 1abe e7a5 c53d 5053 3d3e 3faf 183b
00000380: 6586 ab3c be3e 893e 8b07 3c3e 3f46 8fbd
00000390: 1a3c 84be 20c7 993e 92e8 3f3d 733f 96be
000003a0: 75ff 9d3d 98ec 1bbe 237d 583e b779 283e
000003b0: 3f37 1abe b6e6 573e f817 f03d 1cac adbd
000003c0: 1090 8cbe 62a2 66ba 45cb 543e 7cf1 a5bd
000003d0: 52f8 a1bc eb55 0c3e 657b ca3b 722f 2dbc
000003e0: 64a0 93bd 4d21 8a3e e24e 973e f589 6abe
000003f0: 4096 86be 6f2e 1cbe 69ad 34be 8603 a93d

bias_ih_l0 f4 [30]
0.24255538 0.06087479 -0.17999932 0.14335704 0.3149863 0.0957323 0.117032856 -0.08937529
0.25789154 -0.026779562 -0.16297065 -0.0053145587 -0.2360706 0.28430948 -0.19077447 -0.10362515
0.16536099 0.0069977962 -0.16636316 0.1068171 0.21917278 0.21253848 -0.03789256 0.019553015
-0.10741945 -0.31505936 -0.19200651 0.12448932 -0.27291343 -0.012041578
00000000: 7060 783e d857 793d be51 38be 30cc 123e
00000010: e245 a13e 4c0f c43d ecae ef3d 640a b7bd
00000020: 5c0a 843e d060 dbbc c7e1 26be c025 aebb
00000030: 7ebc 71be 0391 913e 625a 43be 6c39 d4bd
00000040: 6454 293e c54d e53b 1b5b 2abe ecc2 da3d
00000050: d46e 603e b0a3 593e 3b35 1bbd a52d a03c
00000060: bbfe dbbd 764f a1be 5b9d 44be 42f4 fe3d
00000070: 4fbb 8bbe 0a4a 45bc

bias_hh_l0 f4 [30]
-0.11377958 -0.03638524 -0.12622666 0.25917658 0.1614415 0.090029895 0.030653646 0.000550909
0.27037895 -0.107697934 -0.12178753 0.08879272 -0.066285364 0.11130117 -0.1900537 0.23779382
0.25206563 0.19570439 0.037542738 -0.2870439 -0.020664185 0.21992466 0.28890553 0.04920503
-0.30943638 0.11274359 0.15205823 0.0636326 0.19790713 0.03639728
00000000: 4505 e9bd b008 15bd 9041 01be cbb2 843e
00000010: ec50 253e 9861 b83d 5b1d fb3c e16a 103a
00000020: 1c6f 8a3e bc90 dcbd be6b f9bd f5d8 b53d
00000030: 9fc0 87bd def1 e33d 709d 42be 3980 733e
00000040: bf0e 813e bb66 483e 6ac6 193d 6bf7 92be
00000050: f047 a9bc ee33 613e 6deb 933e 378b 493d
00000060: 726e 9ebe 1ce6 e63d 27b5 1b3e cf51 823d
00000070: 2ba8 4a3e 5015 153d

weight_ih_l0_reverse f4 [30, 10]
-0.0055582635 -0.22152281 0.06712108 -0.13963497 0.20761788 -0.001124341 -0.15170896 -0.16741133
0.19853982 -0.061639227 0.20375726 0.2621572 -0.024839371 0.24180047 0.1271754 -0.05901056
0.16979487 0.31602517 -0.24627702 0.19802786 0.11080466 0.12384471 -0.22082898 0.025948126
0.28151378 0.18423781 0.29178825 0.011580594 -0.06934337 0.18582903 0.10143179 -0.051408708
0.014781383 0.039342437 -0.22753891 0.2868263 0.027775291 0.022517469 0.15842015 -0.2851546
0.11732677 -0.08957875 -0.046657015 0.232235 0.23907425 -0.104033984 -0.23199598 0.07929488
-0.18383531 0.13444364 0.16888204 0.16720024 -0.26664507 0.30962786 0.21919589 0.28772053
0.07665152 -0.05953213 0.22645977 -0.036599435 -0.123517655 -0.19007632 -0.03848219 0.23504284
0.24035987 0.22945526 -0.07969647 -0.21705608 0.14318755 0.29821613 -0.29561234 0.13258083
-0.21554396 0.22273687 0.20617445 0.17064124 -0.058438618 -0.13152899 -0.24719092 -0.3108988
0.2182986 -0.07981921 0.06963346 -0.16156362 -0.1356817 0.13120972 0.1039783 0.0030769405
-0.2829968 -0.257317 -0.062502 0.12343388 0.050782677 -0.19387314 -0.26762077 -0.28041002
-0.047710825 -0.047158647 -0.15263526 -0.08908328 -0.22735508 0.2395654 -0.08060616 -0.13631871
-0.04672007 0.017615842 0.24388455 0.28634882 0.18590741 0.26309294 0.13546327 -0.25116298
0.2855447 0.30826354 -0.30796018 -0.19781628 0.0518956 -0.14837763 -0.16995984 -0.08150437
0.26967782 -0.21010707 -0.067598864 -0.23796225 0.10561432 -0.28494057 0.14434041 -0.15149821
-0.12318989 0.26330435 -0.30648983 -0.13590017 -0.037194565 0.07689268 0.15777367 -0.25328758
0.18581074 0.09306837 0.13610464 -0.1267513 0.23317847 -0.2968157 0.20351286 0.15518032
0.2604672 -0.18329553 0.2667299 -0.2157607 -0.3027804 -0.23498373 0.0402859 0.23737194
-0.31567395 -0.21450433 -0.1225689 0.07286032 0.2747065 -0.02345556 0.30543655 0.08750287
0.3122633 0.019321455 -0.18175793 -0.110591054 -0.30007508 -0.25219247 0.016694576 -0.2565436
0.20406982 0.17075041 0.11100451 0.10129323 -0.09422367 -0.18408835 0.26986986 0.1480613
0.13823193 0.1405707 0.19025098 0.21318361 0.30259106 -0.1136421 0.0020760938 -0.014945736
-0.27051884 -0.16345006 -0.0034642932 -0.19251981 0.093175 -0.20479397 -0.31342033 0.0036730235
-0.034464188 -0.00440536 -0.1905889 0.033147857 0.00062741316 -0.25546286 -0.19302972 -0.11251046
-0.27922702 -0.23755634 0.05506714 -0.056915056 -0.08997652 0.180901 0.08368551 0.1365823
-0.11617765 -0.17923382 -0.119814664 -0.16816224 -0.2782936 -0.022727657 0.1043293 -0.26922804
-0.20461951 0.027816983 -0.11954828 -0.09405107 0.14752607 -0.26325488 -0.052415162 -0.29750332
0.28169402 -0.31613514 -0.2934012 0.008749708 -0.075751185 0.0454959 -0.09427634 -0.23785059
0.04824847 0.046396628 -0.023625994 0.19153337 -0.12153232 -0.25534245 -0.09998571 -0.072882086
-0.24857603 0.25859872 -0.10122275 0.2594301 -0.07878539 0.044711843 0.09376477 0.056341674
0.02347328 0.13444974 0.27820718 -0.008549504 0.10554622 0.19339223 -0.26009715 -0.0324774
00000000: 1822 b6bb e0d6 62be c776 893d 78fc 0ebe
00000010: c899 543e a05e 93ba 9859 1bbe e06d 2bbe
00000020: 064e 4b3e 6a79 7cbd bea5 503e 7839 863e
00000030: f07b cbbc 8b9a 773e 453a 023e 0fb5 71bd
00000040: b5de 2d3e 0dce a13e 0b30 7cbe d1c7 4a3e
00000050: 8eed e23d 4ca2 fd3d fe20 62be 2a91 d43c
00000060: 9322 903e d6a8 3c3e 4565 953e 88bc 3d3c
00000070: e603 8ebd f749 3e3e 78bb cf3d f091 52bd
00000080: 9d2d 723c 8925 213d f6ff 68be e6da 923e
00000090: 0289 e33c 8e76 b83c e438 223e c9ff 91be
000000a0: 0549 f03d 1075 b7bd 6d1b 3fbd 03cf 6d3e
000000b0: e1cf 743e c50f d5bd 5b90 6dbe 5b65 a23d
000000c0: 533f 3cbe 98ab 093e 6aef 2c3e 8a36 2b3e
000000d0: b485 88be 8b87 9e3e e374 603e 1b50 933e
000000e0: 79fb 9c3d f6d7 73bd 12e5 673e 4ae9 15bd
000000f0: d3f6 fcbd 5ea3 42be 809f 1dbd 12af 703e
00000100: e620 763e 52f6 6a3e e737 a3bd f343 5ebe
00000110: c29f 123e c9af 983e 805a 97be 45c3 073e
00000120: 8eb7 5cbe 2215 643e 651f 533e 94bc 2e3e
00000130: 555d 6fbd 89af 06be 9e1f 7dbe 212e 9fbe
00000140: ab89 5f3e 4178 a3bd fd9b 8e3d ef70 25be
00000150: 25f0 0abe d75b 063e 93f2 d43d 7fa6 493b
00000160: f5e4 90be 0ebf 83be 0c01 80bd e7ca fc3d
00000170: 7f01 503d ae86 46be 9705 89be e791 8fbe
00000180: 6d6c 43bd 6d29 41bd 6b4c 1cbe 4b71 b6bd
00000190: c5cf 68be a250 753e d814 a5bd 2297 0bbe
000001a0: 8b5d 3fbd 194f 903c dfbc 793e 509c 923e
000001b0: 835e 3e3e 1eb4 863e e2b6 0a3e 6f98 80be
000001c0: ea32 923e b8d4 9d3e f5ac 9dbe 5a90 4abe
000001d0: 7b90 543d 4ef0 17be f409 2ebe c3eb a6bd
000001e0: 3613 8a3e 4f26 57be 4671 8abd 60ac 73be
000001f0: 524c d83d bbe3 91be f9cd 133e 5922 1bbe
00000200: fb4a fcbd d4cf 863e 3cec 9cbe 6a29 0bbe
00000210: 5459 18bd e979 9d3d 6c8f 213e e9ae 81be
00000220: 2c45 3e3e a19a be3d 045f 0b3e 18cb 01be
00000230: 56c6 6e3e 3af8 97be ad65 503e 97e7 1e3e
00000240: f55b 853e d3b1 3bbe d290 883e 5ff0 5cbe
00000250: 0806 9bbe 939f 70be d402 253d a111 733e
00000260: 04a0 a1be 06a7 5bbe 6705 fbbd cb37 953d
00000270: 55a6 8c3e e025 c0bc 2e62 9c3e b434 b33d
00000280: fae0 9f3e 0748 9e3c c01e 3abe 907d e2bd
00000290: 71a3 99be 5f1f 81be 10c3 883c af59 83be
000002a0: aef7 503e 32d9 2e3e 5556 e33d d372 cf3d
000002b0: 57f8 c0bd a881 3cbe 622c 8a3e 629d 173e
000002c0: ac8c 0d3e c4f1 0f3e 27d1 423e ce4c 5a3e
000002d0: 37ed 9a3e 30bd e8bd 130f 083b f6de 74bc
000002e0: 7281 8abe 745f 27be 3209 63bb ea23 45be
000002f0: 89d2 be3d 83b5 51be a178 a0be 1cb7 703b
00000300: 522a 0dbd d75a 90bb bd29 43be 0cc6 073d
00000310: fc78 243a 07cc 82be 95a9 45be e26b e6bd
00000320: d8f6 8ebe f841 73be 158e 613d c31f 69bd
00000330: 9c45 b8bd 1d3e 393e 4f63 ab3d 3bdc 0b3e
00000340: 8cee edbd 1289 37be 6461 f5bd b932 2cbe
00000350: 807c 8ebe 5a2f babc 9aaa d53d 42d8 89be
00000360: c787 51be 71e0 e33c bbd5 f4bd d99d c0bd
00000370: 1311 173e 58c9 86be 48b1 56bd 5b52 98be
00000380: 333a 903e 77dc a1be af38 96be ef5a 0f3c
00000390: 7023 9bbd e959 3a3d f413 c1bd 1b8f 73be
000003a0: 30a0 453d 640a 3e3d 4d8b c1bc 5321 443e
000003b0: f0e5 f8bd 3fbc 82be 4fc5 ccbd 3443 95bd
000003c0: b78a 7ebe 0d67 843e e04d cfbd 06d4 843e
000003d0: 3c5a a1bd c423 373d be07 c03d 87c6 663d
000003e0: 094b c03c 31ad 093e 2c71 8e3e 3813 0cbc
000003f0: 9e28 d83d 9d08 463e 742b 85be 0607 05bd

weight_hh_l0_reverse f4 [30, 10]
-0.009622969 -0.2732039 0.16284901 0.112897776 0.15325722 0.1994183 -0.2707447 0.26884073
0.16435829 0.29672083 -0.14498924 -0.30909765 0.31335577 0.011935553 -0.3030542 -0.087185726
-0.26645282 0.29441646 0.1989987 -0.037145067 -0.08611939 -0.16759671 -0.29157025 -0.19268987
0.1309942 -0.12058738 0.26910743 0.043756682 0.08706207 0.25652418 -0.28668645 -0.25889277
0.146584 0.11892474 0.16524847 -0.22331038 -0.045123763 0.14067273 -0.055656407 0.14630751
0.07101493 -0.30199632 -0.0039418545 0.10231435 0.16383864 0.2004123 -0.2866744 -0.18712527
0.015321174 0.21180162 -0.08882838 -0.16258818 0.081699945 0.121195525 -0.14339264 0.2050173
-0.05835408 -0.21074246 -0.025550285 -0.21586289 -0.30266693 0.3161284 -0.054246932 -0.29607967
-0.18286875 -0.012309363 -0.14462319 -0.11267112 0.28386155 -0.2467911 0.24080256 0.090576105
0.10710188 -0.056945987 -0.26719004 0.08555837 -0.052118838 -0.18065697 -0.11738042 0.283689
-0.24864012 -0.1914601 0.14307463 0.19310519 0.13913375 0.08507161 0.27382198 -0.14465734
0.13424683 -0.1144668 0.3071601 -0.25015965 0.08487508 0.29959217 0.2996668 -0.13690984
-0.22756681 0.06816883 0.29245338 -0.016438415 0.0421557 -0.2997436 0.13386221 0.17538185
0.21463495 0.29679647 0.28626883 -0.2914984 -0.08335676 -0.23469727 -0.066986315 -0.18051417
0.20957175 -0.22813588 0.26913396 0.14736773 0.12874398 0.074354224 -0.25964746 -0.0023985077
-0.24056576 0.22035754 0.2685482 0.13581997 0.22896487 0.13010477 0.13892467 0.2340236
0.012143847 0.18736368 0.30685416 -0.026757171 -0.26315632 -0.23092136 -0.23356858 -0.093743816
-0.29113737 0.11964677 0.014886628 0.08004005 -0.21752325 0.20423228 0.033245407 0.015144679
0.21532096 -0.2692804 0.18182154 0.05453639 -0.14079124 -0.1790929 -0.19340509 0.17279308
-0.31597075 0.16977294 -0.14783144 0.19300213 -0.04054077 0.30645594 -0.20986344 -0.1297331
-0.1246425 0.240407 0.08148635 0.26649874 0.1331597 -0.27328014 -0.039782856 0.30088454
0.30688766 -0.021580026 -0.28108668 -0.017982969 0.11898261 -0.122451276 -0.27004606 0.17164937
0.2522978 0.27788734 -0.009296134 -0.2701986 0.008025753 0.28628924 0.26194206 -0.07462823
0.06566904 0.1041372 -0.19196495 -0.14006719 -0.23731086 -0.1913579 0.10279186 0.13968791
0.2461447 -0.10956295 0.3018986 -0.23006883 -0.31456453 -0.031393457 -0.28892317 -0.026545838
-0.015173249 -0.0023886955 -0.0844511 0.15694429 0.1919325 0.27905896 0.035055768 0.29755834
0.31275204 0.27136856 -0.05520577 0.24472848 -0.15126225 0.009868339 0.15959598 -0.11812885
0.05082619 0.102753155 -0.12729321 0.286379 0.07758429 -0.23395534 0.13699658 -0.023471694
0.24425322 0.010787581 0.021370644 0.031323437 -0.022420187 -0.08599388 0.09361731 0.23098353
0.08250303 0.27607298 -0.29515585 0.11038692 0.20458992 -0.20871976 -0.23370609 0.16599418
0.1446829 -0.0968431 -0.23157206 -0.115452416 -0.257163 -0.0076977555 -0.0009926257 -0.29254675
-0.086282074 0.10535129 -0.19751425 0.04136175 -0.29295295 -0.003701558 -0.26069102 0.029055476
00000000: a8a9 1dbc 62e1 8bbe e4c1 263e f336 e73d
00000010: 76ef 1c3e 5034 4c3e 0d9f 8abe 7ea5 893e
00000020: 8a4d 283e cbeb 973e 0f78 14be 0c42 9ebe
00000030: 2b70 a03e 568d 433c ec29 9bbe 6e8e b2bd
00000040: 816c 88be c1bd 963e 51c6 4b3e 6d25 18bd
00000050: 5d5f b0bd 799e 2bbe b248 95be 7e50 45be
00000060: 5823 063e 84f6 f6bd 73c8 893e 353a 333d
00000070: 994d b23d 2357 833e 91c8 92be 988d 84be
00000080: 1e1a 163e d08e f33d e536 293e 7aab 64be
00000090: b2d3 38bd 830c 103e f9f7 63bd a3d1 153e
000000a0: 4770 913d 439f 9abe ac2a 81bb 308a d13d
000000b0: 51c5 273e e238 4d3e fdc6 92be c49d 3fbe
000000c0: a905 7b3c 86e2 583e a7eb b5bd 847d 26be
000000d0: 4d52 a73d 5c35 f83d 85d5 12be 0ef0 513e
000000e0: b004 6fbd dfcc 57be d54e d1bc 290b 5dbe
000000f0: 29f7 9abe 95db a13e 0832 5ebd c197 97be
00000100: f241 3bbe 36ad 49bc 1a18 14be 1ec0 e6bd
00000110: 4d56 913e ceb6 7cbe f294 763e f77f b93d
00000120: 3b58 db3d 3240 69bd 22cd 88be 3a39 af3d
00000130: 907a 55bd 24fe 38be 2565 f0bd af3f 913e
00000140: 849b 7ebe 1e0e 44be 2882 123e 5ebd 453e
00000150: 1479 0e3e 063a ae3d 6532 8c3e 0e21 14be
00000160: 0078 093e 926d eabd 1744 9d3e ed14 80be
00000170: fcd2 ad3d 2564 993e ed6d 993e 1832 0cbe
00000180: 4607 69be 199c 8b3d 73bc 953e dba9 86bc
00000190: 75ab 2c3d fe77 99be 2d13 093e 4d97 333e
000001a0: 44c9 5b3e b5f5 973e d491 923e 473f 95be
000001b0: f3b6 aabd 7b54 70be 1f30 89bd b5d8 38be
000001c0: fa99 563e 749c 69be edcb 893e 91e7 163e
000001d0: 76d5 033e 0747 983d 83f0 84be 4830 1dbb
000001e0: df56 76be 68a5 613e 267f 893e 6414 0b3e
000001f0: c475 6a3e 2f3a 053e 4542 0e3e e2a3 6f3e
00000200: fcf6 463c 44dc 3f3e fd1b 9d3e db31 dbbc
00000210: 6dbc 86be a676 6cbe 9a2c 6fbe c2fc bfbd
00000220: f50f 95be 5e09 f53d 0be7 733c 0aec a33d
00000230: 6abe 5ebe 4422 513e 562c 083d 6321 783c
00000240: 197d 5c3e 1fdf 89be 6d2f 3a3e 8d61 5f3d
00000250: 942b 10be 2164 37be fc0b 46be abf0 303e
00000260: ebc6 a1be f5d8 2d3e 2061 17be 5aa2 453e
00000270: 140e 26bd cbe7 9c3e 71e6 56be c1d8 04be
00000280: 9144 ffbd 412d 763e 51e2 a63d 8672 883e
00000290: 045b 083e 60eb 8bbe 59f3 22bd 8a0d 9a3e
000002a0: 6120 9d3e 98c8 b0bc 98ea 8fbe 0551 93bc
000002b0: 28ad f33d bcc7 fabd 7a43 8abe dac4 2f3e
000002c0: 2d2d 813e 4047 8e3e d04e 18bc 7957 8abe
000002d0: 737e 033c 8194 923e 451d 863e afd6 98bd
000002e0: 7d7d 863d e245 d53d 7692 44be c66d 0fbe
000002f0: 9e01 73be 53f3 43be 8a84 d23d 590a 0f3e
00000300: 5b0d 7c3e 8a62 e0bd 7492 9a3e 2a97 6bbe
00000310: 9a0e a1be 6d96 00bd bded 93be a876 d9bc
00000320: 3899 78bc a98b 1cbb b3f4 acbd 01b6 203e
00000330: f489 443e d1e0 8e3e a396 0f3d 9159 983e
00000340: 0921 a03e d2f0 8a3e 721f 62bd 1a9a 7a3e
00000350: 7ee4 1abe d0ae 213c 216d 233e 8aed f1bd
00000360: 1f2f 503d 3f70 d23d 2759 02be 45a0 923e
00000370: 83e4 9e3d fd91 6fbe d548 0c3e b647 c0bc
00000380: 841d 7a3e 65be 303c 7d11 af3c 014d 003d
00000390: 8aaa b7bc 8f1d b0bd 6fba bf3d f286 6c3e
000003a0: 59f7 a83d 7059 8d3e ab1e 97be 8a12 e23d
000003b0: 0580 513e a2ba 55be a650 6fbe 61fa 293e
000003c0: c127 143e ad55 c6bd 3a21 6dbe 5172 ecbd
000003d0: deaa 83be 743d fcbb fe1a 82ba b0c8 95be
000003e0: a8b4 b0bd 6bc2 d73d 2d41 4abe f06a 293d
000003f0: eefd 95be d795 72bb 4b79 85be c005 ee3c

bias_ih_l0_reverse f4 [30]
-0.019194271 -0.09285146 -0.1084396 -0.024478637 -0.20689818 0.21676795 -0.24206838 -0.11259532
0.18437771 0.2856744 0.14391488 0.12598112 0.0460364 0.10585479 -0.06003506 -0.16419877
0.13403414 -0.20761696 -0.19271213 0.2765652 0.16675846 -0.22486404 0.11122979 0.056331303
0.27358386 0.22412036 0.13910791 0.22701003 -0.13182928 -0.16460153
00000000: 4e3d 9dbc e828 bebd 9515 debd 6c87 c8bc
00000010: 1edd 53be 6bf8 5d3e c6e0 77be 6098 e6bd
00000020: 83cd 3c3e ea43 923e 6c5e 133e 3201 013e
00000030: aa90 3c3d 65ca d83d 53e7 75bd b923 28be
00000040: 3f40 093e 8a99 54be 5456 45be f499 8d3e
00000050: bbc2 2a3e c242 66be 72cc e33d a7bb 663d
00000060: 2f13 8c3e cf7f 653e 4e72 0e3e 5175 683e
00000070: 41fe 06be 4e8d 28be

bias_hh_l0_reverse f4 [30]
-0.29548445 -0.21359259 0.084480755 0.21800688 -0.30018327 0.0057146717 0.07978618 0.3086447
-0.27568245 0.15614903 0.29973826 0.3030858 -0.06851091 -0.28925732 0.005772331 0.27436656
0.30123556 -0.18040325 -0.11283233 -0.15116481 0.13637212 0.17682874 -0.27537417 -0.22945125
-0.14812921 0.25989765 0.13490856 -0.08147919 -0.110452846 0.08613315
00000000: bd49 97be 04b8 5abe 3f04 ad3d 323d 5f3e
00000010: 9fb1 99be 2442 bb3b f066 a33d ae06 9e3e
00000020: 4026 8dbe 88e5 1f3e 4b77 993e 102e 9b3e
00000030: 734f 8cbd 8919 94be d225 bd3b c679 8c3e
00000040: 8c3b 9a3e a1bb 38be a314 e7bd f3ca 1abe
00000050: 22a5 0b3e 9812 353e d8fd 8cbe 45f5 6abe
00000060: 2faf 17be 4e11 853e 7825 0a3e 90de a6bd
00000070: 1a35 e2bd 9466 b03d

weight f4 [10, 20]
-0.20168366 -0.19312222 -0.050185334 0.17150848 -0.14363125 0.20883256 0.032044806 0.095307104
0.003192327 0.029723816 -0.05944344 0.12260839 0.22107378 -0.114977755 -0.12254533 -0.10995887
-0.14185295 -0.044750106 0.10667457 -0.05953656 -0.04007873 0.07468905 -0.064504065 -0.012542187
0.1415447 -0.073093586 -0.15570533 -0.18922374 0.1545029 -0.22358859 0.20222177 -0.2062381
-0.007616564 0.13841376 0.08099445 -0.052050512 -0.032041356 -0.11604056 0.12163432 -0.035265233
0.19463877 0.043899376 -0.22294794 0.21611963 -0.030029282 -0.034959268 0.028262382 -0.08974245
0.045628674 0.12503465 -0.06554801 0.12128924 -0.18507586 -0.067898124 -0.16900036 -0.0096909925
0.04676618 -0.05689543 0.1412863 -0.056132298 0.21170817 0.17181276 0.17998381 -0.053635523
0.055196796 0.14679864 0.21745144 0.12132548 -0.007934305 -0.17841505 0.11156641 -0.068656154
-0.07645322 0.17538981 0.031459346 0.04713162 -0.19844975 0.13690469 -0.08709799 -0.09810231
-0.13461769 -0.10193648 -0.028230287 0.032232013 -0.2135811 -0.03914543 0.06440544 0.037772585
-0.14294042 -0.019921288 -0.016496435 -0.09812481 0.05289084 -0.0817915 -0.10595611 0.10339908
0.172086 -0.039125502 -0.050507966 0.08135119 -0.025676722 0.10794491 -0.050385043 -0.016930018
-0.016420178 -0.036678445 -0.14441817 -0.20571792 0.13274406 0.00423887 -0.034991533 0.03651145
0.020567663 -0.01094909 0.08381682 -0.09417233 0.009300491 -0.0011647136 0.050795697 0.13476242
0.03375589 -0.14773668 0.19155641 -0.15163025 0.03615086 0.08798465 0.16527393 0.0297699
0.21976629 0.032191988 0.08382465 0.0672546 -0.067262255 -0.08065519 -0.0697316 -0.08044493
0.07602457 -0.02163592 -0.031055044 0.07976001 -0.22275615 0.13663104 -0.10282433 0.20533095
-0.08296877 0.1716378 -0.03473842 0.15744048 0.022360465 -0.056867845 -0.16899194 0.09299943
-0.06548589 -0.20711556 0.06273844 0.07225987 0.21816555 -0.08467573 -0.019318642 0.1672317
0.088876694 0.15328778 0.03859088 -0.21450877 0.06997449 -0.06613487 0.05016458 -0.1234372
-0.0059087574 0.19358072 0.101056665 -0.2184451 -0.1575129 -0.022239545 -0.21825156 -0.19050449
-0.096614696 -0.06207607 -0.13417655 0.1568125 -0.084523946 -0.027709475 -0.1939087 0.20603974
0.035770185 -0.051539924 -0.16019146 0.055022456 0.05064173 0.039506357 -0.041963257 0.11021258
-0.15166703 -0.08091094 -0.052054174 -0.15031858 0.04758608 0.12388293 0.13256511 -0.17596935
00000000: 2986 4ebe d5c1 45be 238f 4dbd eb9f 2f3e
00000010: 1214 13be 34d8 553e 6a41 033d 5f30 c33d
00000020: 5c36 513b 5c7f f33c f77a 73bd 1c1a fb3d
00000030: 2a61 623e 7579 ebbd 0cf9 fabd 1e32 e1bd
00000040: e641 11be e34b 37bd 3278 da3d 9cdc 73bd
00000050: 9829 24bd 93f6 983d b51a 84bd bf7d 4dbc
00000060: 18f1 103e 17b2 95bd 3871 1fbe dec3 41be
00000070: 0236 1e3e 68f4 64be 3913 4f3e 1530 53be
00000080: 5f94 f9bb 56bc 0d3e 6be0 a53d eb32 55bd
00000090: cc3d 03bd aca6 edbd 6a1b f93d 4772 10bd
000000a0: 634f 473e d5cf 333d 774c 64be 774e 5d3e
000000b0: f8ff f5bc 7331 0fbd 8386 e73c e4ca b7bd
000000c0: 22e5 3a3d 1509 003e 093e 86bd 7e66 f83d
000000d0: 8784 3dbe 2c0e 8bbd 6e0e 2dbe f8c6 1ebc
000000e0: e58d 3f3d 2f0b 69bd 5bad 103e fbea 65bd
000000f0: 07ca 583e afef 2f3e ad4d 383e ecb0 5bbd
00000100: 0916 623d 6252 163e 97ab 5e3e 7e79 f83d
00000110: e3fe 01bc 6fb2 36be ee7c e43d 999b 8cbd
00000120: 8193 9cbd 6399 333e 84db 003d 160d 413d
00000130: 6936 4bbe be30 0c3e 6e60 b2bd dde9 c8bd
00000140: 38d9 09be 13c4 d0bd 3443 e7bc b705 043d
00000150: 01b5 5abe f556 20bd 00e7 833d 6db7 1a3d
00000160: f95e 12be f831 a3bc 8823 87bc a9f5 c8bd
00000170: 11a4 583d 4d82 a7bd 84ff d8bd e6c2 d33d
00000180: 5037 303e 1042 20bd 71e1 4ebd 749b a63d
00000190: fd57 d2bc 3912 dd3d 8c60 4ebd d2b0 8abc
000001a0: 9c83 86bc 233c 16bd 5be2 13be b8a7 52be
000001b0: 0fee 073e 38e6 8a3b 4853 0fbd 088d 153d
000001c0: 847d a83c d063 33bc 27a8 ab3d 6cdd c0bd
000001d0: 1661 183c 4ea9 98ba 260f 503d 29ff 093e
000001e0: 9e43 0a3d 4948 17be 5d27 443e f644 1bbe
000001f0: ed12 143d 4c31 b43d 923d 293e 01e0 f33c
00000200: 6a0a 613e bfdb 033d 42ac ab3d c8bc 893d
00000210: cbc0 89bd 8c2e a5bd 71cf 8ebd 50c0 a4bd
00000220: c5b2 9b3d d03d b1bc 2667 febc 3759 a33d
00000230: 301a 64be 02e9 0b3e 9095 d2bd 4742 523e
00000240: 88eb a9bd d2c1 2f3e e049 0ebd 1438 213e
00000250: 4b2d b73c 42ee 68bd 390c 2dbe 7c76 be3d
00000260: 771d 86bd 1a16 54be 037d 803d fcfc 933d
00000270: ca66 5f3e 786a adbd 2142 9ebc c93e 2b3e
00000280: fc04 b63d 79f7 1c3e 7811 1e3d 30a8 5bbe
00000290: c94e 8f3d b871 87bd 6079 4d3d a5cc fcbd
000002a0: 409e c1bb 063a 463e ccf6 ce3d 13b0 5fbe
000002b0: 104b 21be b52f b6bc 567d 5fbe 9c13 43be
000002c0: eddd c5bd 7a43 7ebd 9465 09be 7593 203e
000002d0: e41a adbd fbfe e2bc 0190 46be 15fc 523e
000002e0: c283 123d 871b 53bd 3b09 24be 3a5f 613d
000002f0: b46d 4f3d 6bd1 213d aae1 2bbd 22b7 e13d
00000300: 9a4e 1bbe a3b4 a5bd c236 55bd 1ded 19be
00000310: 9fe9 423d 55b6 fd3d 26bf 073e 4f31 34be

bias f4 [10]
0.0111365 -0.019973872 -0.041077875 0.13021307 0.13912901 0.12752357 0.16687463 0.10593604
0.17168528 -0.22285382
00000000: de75 363c 3fa0 a3bc 4641 28bd 9356 053e
00000010: d677 0e3e 8a95 023e 2fe1 2a3e fff4 d83d
00000020: 44ce 2f3e cb33 64be

weight f4 [5, 10]
-0.09303299 -0.17251731 -0.10687534 -0.3056227 -0.22028539 -0.30174372 -0.21341774 0.02208679
-0.10002895 -0.2811423 0.17127351 -0.03285844 0.2256198 0.21834232 -0.22967426 0.25207353
0.041955117 -0.20102477 -0.2785439 0.27436912 0.19714214 0.19958569 0.014213769 0.009887788
0.09575097 -0.14890875 -0.28662324 0.02689275 0.050824765 0.09387926 0.16050717 0.022062302
0.1737229 -0.027129296 0.16844831 -0.1556453 0.29787034 0.078882515 -0.30980116 -0.124542795
-0.021230705 -0.1052046 -0.033235848 0.01804795 -0.21980052 -0.032004543 -0.12363033 0.3032855
0.18964726 -0.026099212
00000000: 1588 bebd 61a8 30be 75e1 dabd 947a 9cbe
00000010: 7e92 61be 277e 9abe 2e8a 5abe 5bef b43c
00000020: fadb ccbd e2f1 8fbe 5362 2f3e 9296 06bd
00000030: e008 673e 2195 5f3e bb2f 6bbe c80f 813e
00000040: 21d9 2b3d 70d9 4dbe 4e9d 8ebe 1c7a 8c3e
00000050: a1df 493e 3160 4c3e dee0 683c 6400 223c
00000060: 1619 c43d 897b 18be 48c0 92be 2f4e dc3c
00000070: a12d 503d c543 c03d fe5b 243e 00bc b43c
00000080: 6ae4 313e 423e debc b77d 2c3e 7b61 1fbe
00000090: 7682 983e 288d a13d 429e 9ebe 4b10 ffbd
000000a0: 04ec adbc 8275 d7bd 5022 08bd 4bd9 933c
000000b0: 6313 61be 3217 03bd e631 fdbd 3d48 9b3e
000000c0: e432 423e 04ce d5bc

bias f4 [5]
0.03241303 0.011977941 -0.1989597 0.23123544 -0.08547947
00000000: 86c3 043d 203f 443c 17bc 4bbe fcc8 6c3e
00000010: dc0f afbd
