proyecto_final/model_gru_ex_1.pt (torch, 180711 bytes, 13 tensors)

weight f4 [4221, 10]
0.0 0.0 0.0 0.0 0.0 0.0 0.0 0.0
0.0 0.0 0.36319506 0.3040024 0.17911336 1.2881237 1.1441668 -0.2934443
-1.3836445 -1.7605716 0.6178977 0.8061079 0.7253793 -1.648405 -0.42064598 1.8570682
0.74421984 -0.48188195 -0.27189243 0.07461694 1.323245 1.7170869 0.83035654 -0.8014864
-0.5795484 0.16426277 -0.38532794 0.40818638 0.5229887 0.26855797 0.5585556 0.3106197
-0.06454644 0.77480495 -0.18767188 0.106676035 0.50975007 2.3029413 -1.4664106 -1.5415063
-0.71248627 0.7051112 0.94860744 0.35313952 -0.29163682 -0.32147938 0.71146077 -0.46715
-0.48177707 0.8239367 1.5407186 3.416189 -1.6414961 -1.2483088 1.5819799 -0.61696845
-0.38771403 0.98113567 1.0778427 1.3687497 -1.454829 2.8046079 -0.31868407 0.17768955
-1.785394 -0.6137248 -0.37037325 -0.45087495 -1.1602176 1.1044546 -0.262622 0.9287675
-0.002772145 0.9246102 -0.9925573 -0.0609986 0.6400058 -0.29413256 1.0145257 0.15555498
-0.027155709 2.368421 -1.797462 -0.041691404 -0.95942956 -1.1174654 -0.12668781 0.58901954
1.6970593 -1.3334895 0.563485 0.33881631 -2.7607543 -1.6608915 -0.018479584 0.4708529
0.08505326 -0.07785259 0.5282021 0.4687047 0.6005799 -1.0647696 0.9809939 -0.7754721
-0.35538995 -2.5425806 -0.2040518 0.01255382 0.87480485 0.17699714 -0.76244056 -0.03833029
-0.457343 -0.6425714 2.021732 -0.39086345 -0.0013607767 1.0901423 1.0669172 1.4458117
-0.96606964 -0.5360379 -0.69628066 0.3864224 0.42922828 0.25200748 2.0646088 -1.2501956
-0.14047286 0.08115246 -0.49208492 -1.0734798 -0.20947295 -0.85620975 -0.15753442 0.39681497
-0.2832598 0.27172974 0.41468754 1.332482 0.17755851 0.26280317 -0.20016591 -0.22374956
0.07214065 -0.84311134 -1.7380098 0.23778361 -0.84476715 0.18242754 0.038065195 0.5294676
0.8681262 -0.9839546 0.28468284 -0.043542743 1.0604038 -0.58821714 0.88257194 0.646097
0.41246763 0.30064398 -0.24798992 0.39866608 -0.21719736 -0.9285499 0.26975018 -1.3448504
-0.010118029 -0.20699613 -1.5919567 -0.45833057 1.0842057 0.13546011 1.7615163 0.93420386
-0.98949814 -0.6956782 1.2303181 0.39116612 0.52972406 -1.0859333 -1.078896 -1.1245006
-0.5076297 0.5848579 0.37464526 0.45100257 0.25786012 1.0533903 -0.40779078 0.8938899
0.13306758 -1.0057601 0.26247397 0.4314276 0.566907 -1.1394583 0.4355206 -0.6391197
1.2657939 -0.018895704 0.84117675 0.801823 -1.1488435 1.0182011 -0.4537389 -1.2450775
1.0751753 1.4242344 -0.6738435 0.38662878 0.18874535 -0.03736557 -1.2614948 -0.24808179
-0.13873905 1.5452121 0.048515547 0.18113863 -0.11338184 0.8429415 -0.16529684 -1.221383
-0.32351637 -0.68906575 -0.39016673 0.9672594 -0.959832 0.76112264 1.0716096 -1.6333402
-1.6430916 -1.6627324 0.2151279 -0.92802876 1.4549984 -0.31270558 0.7689899 -0.01105042
0.03968237 0.9098744 1.09305 -0.5497647 -1.0031654 0.0907517 1.9029359 0.54232657
00000000: 0000 0000 0000 0000 0000 0000 0000 0000
00000010: 0000 0000 0000 0000 0000 0000 0000 0000
00000020: 0000 0000 0000 0000 b4f4 b93e 34a6 9b3e
00000030: 7e69 373e 3de1 a43f 0f74 923f 553e 96be
00000040: 431b b1bf 695a e1bf 8b2e 1e3f 165d 4e3f
00000050: 75b2 393f effe d2bf e95e d7be 69b4 ed3f
00000060: 3185 3e3f 3bb9 f6be 7c35 8bbe c4d0 983d
00000070: 1860 a93f 81c9 db3f 3f92 543f 362e 4dbf
00000080: 495d 14bf 8034 283e b449 c5be cefd d03e
00000090: 96e2 053f 6e80 893e 80fd 0e3f 8c09 9f3e
000000a0: ed30 84bd 9e59 463f 0f2d 40be f778 da3d
000000b0: fb7e 023f 6463 1340 58b3 bbbf 1450 c5bf
000000c0: 8065 36bf 2b82 343f f0d7 723f b4ce b43e
000000d0: 6c51 95be f298 a4be 4b22 363f 492e efbe
000000e0: 7cab f6be 84ed 523f 4436 c53f d7a2 5a40
000000f0: 8b1c d2bf 95c8 9fbf 517e ca3f a5f1 1dbf
00000100: 7482 c6be b52b 7b3f c0f6 893f 3133 af3f
00000110: d637 babf b27e 3340 8f2a a3be 40f4 353e
00000120: ca87 e4bf 121d 1dbf 90a1 bdbe 15d9 e6be
00000130: 0382 94bf c55e 8d3f 6476 86be b5c3 6d3f
00000140: e0ac 35bb 41b3 6c3f 3c18 7ebf abd9 79bd
00000150: 6cd7 233f 8b98 96be fadb 813f ce49 1f3e
00000160: a675 debc 3694 1740 3c13 e6bf 9bc4 2abd
00000170: 2d9d 75bf 1b09 8fbf 73ba 01be fcc9 163f
00000180: 3d39 d93f c9af aabf 8e40 103f 5579 ad3e
00000190: 33b0 30c0 1898 d4bf 7f62 97bc a213 f13e
000001a0: 6730 ae3d 2e71 9fbd 4138 073f 10fa ef3e
000001b0: 9bbf 193f 5f4a 88bf 6b22 7b3f 5785 46bf
000001c0: acf5 b5be a4b9 22c0 f4f2 50be 8aae 4d3c
000001d0: 36f3 5f3f bd3e 353e 4e2f 43bf 3900 1dbd
000001e0: dd28 eabe 8f7f 24bf 0f64 0140 411f c8be
000001f0: 175c b2ba c889 8b3f be90 883f 5c10 b93f
00000200: 5750 77bf c839 09bf 733f 32bf 28d9 c53e
00000210: cfc3 db3e 2007 813e 8d22 0440 6906 a0bf
00000220: 1ed8 0fbe 4333 a63d 8ef2 fbbe c967 89bf
00000230: 1480 56be 9030 5bbf b450 21be 552b cb3e
00000240: 6e07 91be 2920 8b3e ed51 d43e c58e aa3f
00000250: e6d1 353e 238e 863e 4bf8 4cbe 9b1e 65be
00000260: 7abe 933d 25d6 57bf 1b77 debf 8c7d 733e
00000270: a942 58bf 49ce 3a3e 40ea 1b3d 308b 073f
00000280: 853d 5e3f 73e4 7bbf f3c1 913e e059 32bd
00000290: 50bb 873f 6695 16bf 3cf0 613f 9d66 253f
000002a0: f52e d33e 02ee 993e 12f1 7dbe f61d cc3e
000002b0: fc68 5ebe 72b5 6dbf b21c 8a3e 0f24 acbf
000002c0: 17c6 25bc cbf6 53be 3dc5 cbbf 4eaa eabe
000002d0: 41c7 8a3f 0eb6 0a3e 5e79 e13f fc27 6f3f
000002e0: c04f 7dbf f717 32bf 107b 9d3f ed46 c83e
000002f0: ff9b 073f ddff 8abf 4419 8abf a3ef 8fbf
00000300: 05f4 01bf 3fb9 153f 81d1 bf3e cfe9 e63e
00000310: 3e06 843e 7ed5 863f f4c9 d0be f8d5 643f
00000320: de42 083e bfbc 80bf fd62 863e 14e4 dc3e
00000330: d120 113f c5d9 91bf 8efc de3e 599d 23bf
00000340: 8905 a23f 2acb 9abc 5c57 573f 4644 4d3f
00000350: 4e0d 93bf 6a54 823f 7750 e8be b35e 9fbf
00000360: 589f 893f 504d b63f 0281 2cbf 35f4 c53e
00000370: 7646 413e a40c 19bd a978 a1bf 2709 7ebe
00000380: 9c11 0ebe 83c9 c53f 3db8 463d 687c 393e
00000390: bd34 e8bd 04cb 573f 9343 29be 4756 9cbf
000003a0: f0a3 a5be 9d66 30bf efc3 c7be 509e 773f
000003b0: 8db7 75bf efd8 423f 812a 893f 4b11 d1bf
000003c0: d350 d2bf 6ad4 d4bf 7d4a 5c3e 4b93 6dbf
000003d0: 633d ba3f f21a a0be 86dc 443f d20c 35bc
000003e0: fb89 223d 87ed 683f 10e9 8b3f 61bd 0cbf
000003f0: b967 80bf 07dc b93d 6793 f33f ead5 0a3f

weight_ih_l0 f4 [30, 10]
-0.006694357 -0.19337134 -0.38909286 -0.21673375 -0.18606427 -0.13828053 0.46236506 0.166415
-0.053326387 0.24815713 0.051028587 0.22156884 0.26993525 -0.28741947 -0.04337404 0.33735305
-0.07303526 0.20078593 -0.29364538 0.1425911 -0.25289056 0.27306765 -0.108779036 0.09589345
0.30565968 0.16941614 -0.2609968 0.015316647 0.22906357 -0.12419489 -0.2531586 0.0852066
-0.315935 -0.18712522 0.4042506 6.0782186e-06 0.3458213 0.09778643 -0.09050662 0.048199024
0.42580163 -0.1333384 -0.37285405 -0.29864922 -0.3243722 0.09740556 0.21793358 -0.1400203
0.22001007 -0.30475876 0.05669714 0.05091452 0.29870477 0.44999614 0.29629904 -0.29921058
0.35793558 0.020019868 0.1876719 0.38419154 0.19814259 0.14132956 0.2724084 0.20490849
0.32051405 0.19201414 0.09818013 -0.16633342 -0.062019333 -0.16423742 0.27506587 -0.06621877
-0.12541804 -0.1749958 -0.24508114 -0.23717561 0.41299975 0.10167251 0.13957216 0.04170896
0.14311197 -0.15377209 -0.0520531 -0.062296804 0.082645744 0.08388289 0.097336985 -0.23878868
-0.25308517 -0.16152981 0.026975583 0.085568726 -0.22218794 0.2674234 -0.13665555 0.08755512
-0.051124096 0.26713505 -0.07490193 0.040760726 0.024237258 -0.25492042 0.2301606 -0.034368742
0.021219028 -0.18092746 -0.17896923 0.22280906 0.36081877 -0.26515713 0.1378413 0.19486101
-0.23634447 0.16714744 0.11445702 0.08252904 0.17850411 0.3278361 -0.51036966 0.086969025
0.22708891 -0.24154891 -0.2118174 -0.18068776 -0.16633233 0.119247526 0.07725241 -0.31208006
0.18233183 -0.29134235 -0.33445713 0.20964716 -0.38895115 0.022742905 0.23717126 0.33780766
-0.36805886 -0.20925768 -0.18432271 0.19263959 0.2584411 0.1601408 -0.21579325 -0.15354289
0.32407993 -0.25410086 0.28084475 0.23809981 0.105944335 -0.02634136 -0.27349982 -0.4483387
0.1268095 0.24197482 0.17644544 -0.22374074 0.2620859 -0.11213054 0.40427947 0.23636973
-0.0035768482 -0.056482993 -0.29183134 -0.4060924 -0.27804062 -0.07394056 0.15481888 -0.12235262
0.27985296 0.19858934 0.13986246 0.22776309 0.29306328 0.22832917 0.21148984 -0.20384547
0.0013825936 -0.1565295 0.21438761 0.25791988 -0.061189856 -0.088675685 -0.31071007 0.103179805
0.12987669 -0.4092288 -0.16460505 0.072850525 -0.15539685 -0.053883202 0.09164811 -0.4465142
0.22217353 -0.053800754 -0.24841227 -0.22982496 -0.13744836 -0.12306449 0.15214217 -0.0123546515
0.060342297 -0.02371898 -0.4220171 -0.20724806 -0.1273818 0.09686435 -0.36709327 -0.00089614495
0.13214949 0.1904742 0.05416179 -0.07414963 0.098763674 0.08720042 -0.12924162 -0.3146991
-0.33340168 -0.15893055 0.10284058 0.23303102 -0.25344855 0.04847371 -0.20480993 -0.13066287
-0.039614234 0.23511732 0.051060524 0.006416031 -0.06434942 0.35445544 0.28523925 0.18176767
0.22868216 -0.11395209 0.096227415 0.24827428 -0.10063061 0.40728414 -0.010063803 -0.30788958
0.36466554 -0.056260098 -0.32833034 -0.45361778 0.03385871 0.17634344 -0.31306303 -0.19697718
0.15925846 -0.26527998 -0.3422364 -0.17443566 0.42703196 0.5358861 0.110477075 0.31675526
00000000: 565c dbbb 2303 46be 2e37 c7be 74ef 5dbe
00000010: a287 3ebe 6999 0dbe 1dbb ec3e b268 2a3e
00000020: c56c 5abd e71c 7e3e 5a03 513d f1e2 623e
00000030: f434 8a3e a528 93be faa8 31bd 8ab9 ac3e
00000040: 8393 95bd d49a 4d3e b058 96be 6703 123e
00000050: df7a 81be 86cf 8b3e 8bc7 debd c963 c43d
00000060: 6d7f 9c3e 6d7b 2d3e 5fa1 85be acf2 7a3c
00000070: a48f 6a3e e459 febd 019e 81be cc80 ae3d
00000080: 3bc2 a1be c19d 3fbe eff9 ce3e 80f3 cb36
00000090: 7d0f b13e 4044 c83d 895b b9bd 576c 453d
000000a0: ac02 da3e dd89 08be bae6 bebe 8de8 98be
000000b0: 1d14 a6be 917c c73d fb29 5f3e 7b61 0fbe
000000c0: 524a 613e 5709 9cbe 433b 683d be8b 503d
000000d0: d5ef 983e e565 e63e 82b4 973e 2132 99be
000000e0: 5543 b73e b500 a43c 102d 403e c1b4 c43e
000000f0: e4e5 4a3e b2b8 103e 1d79 8b3e 88d3 513e
00000100: 6b1a a43e 5b9f 443e aa12 c93d 4f53 2abe
00000110: fc07 7ebd db2d 28be 6fd5 8c3e b59d 87bd
00000120: 966d 00be 1932 33be 8df6 7abe 2ade 72be
00000130: b474 d33e ad39 d03d 01ec 0e3e 04d7 2a3d
00000140: f28b 123e 6e76 1dbe a235 55bd ef2a 7fbd
00000150: 2c42 a93d cbca ab3d 9d58 c73d 0585 74be
00000160: 6194 81be 1268 25be e6fb dc3c a83e af3d
00000170: 3c85 63be b8eb 883e 6fef 0bbe 1950 b33d
00000180: 8067 51bd edc5 883e 2f66 99bd b8f4 263d
00000190: 378d c63c ee84 82be 38af 6b3e 3dc6 0cbd
000001a0: 87d3 ad3c 0c45 39be b643 37be 0f28 643e
000001b0: 3dbd b83e adc2 87be 4526 0d3e a589 473e
000001c0: 4904 72be b328 2b3e 7168 ea3d fc04 a93d
000001d0: c8c9 363e 22da a73e 96a7 02bf d11c b23d
000001e0: ff89 683e 9958 77be a9e6 58be 3606 39be
000001f0: 0653 2abe 0c38 f43d 8336 9e3d f5c8 9fbe
00000200: 32b5 3a3e d32a 95be f73d abbe bfad 563e
00000210: 9b24 c7be 544f ba3c 06dd 723e 20f5 ac3e
00000220: 3672 bcbe a547 56be 18bf 3cbe 5043 453e
00000230: 6452 843e f3fb 233e e8f8 5cbe 593a 1dbe
00000240: ceed a53e 8219 82be e2ca 8f3e 70d0 733e
00000250: 58f9 d83d d6c9 d7bc 2b08 8cbe a68c e5be
00000260: 59da 013e 3fc8 773e 1dae 343e 4b1c 65be
00000270: 2030 863e b2a4 e5bd b8fd ce3e e80a 723e
00000280: 8e69 6abb b65a 67bd eb6a 95be 58eb cfbe
00000290: 575b 8ebe 266e 97bd d788 1e3e 0394 fabd
000002a0: e348 8f3e 015b 4b3e 1b38 0f3e ba3a 693e
000002b0: 640c 963e 1fcf 693e cb90 583e debc 50be
000002c0: 2538 b53a 4549 20be 6d88 5b3e 130e 843e
000002d0: 37a2 7abd 999b b5bd 6415 9fbe ef4f d33d
000002e0: 65fe 043e 7086 d1be 3a8e 28be a832 953d
000002f0: 5a20 1fbe a2b4 5cbd 01b2 bb3d 829d e4be
00000300: 7581 633e 2e5e 5cbd c95f 7ebe 3c57 6bbe
00000310: 43bf 0cbe 3c09 fcbd 28cb 1b3e 2a6b 4abc
00000320: 7c29 773d 4e4e c2bc a012 d8be d638 54be
00000330: 6070 02be d160 c63d a6f3 bbbe 45eb 6aba
00000340: 3252 073e ab0b 433e c1d8 5d3d c3db 97bd
00000350: 9c44 ca3d 2296 b23d ea57 04be 3e20 a1be
00000360: a0b3 aabe b1be 22be 159e d23d af9f 6e3e
00000370: 02c4 81be 5e8c 463d b2b9 51be 7dcc 05be
00000380: 8942 22bd 98c2 703e d724 513d 923d d23b
00000390: a1c9 83bd 2f7b b53e e10a 923e 4e21 3a3e
000003a0: a82b 6a3e b75f e9bd e112 c53d 9d3b 7e3e
000003b0: 6c17 cebd 8c87 d03e a6e2 24bc b4a3 9dbe
000003c0: 71b5 ba3e fd70 66bd ea1a a8be 9740 e8be
000003d0: 6eaf 0a3d 6093 343e cc49 a0be 63b4 49be
000003e0: a614 233e c7d2 87be 9c39 afbe 439f 32be
000003f0: efa3 da3e d52f 093f ce41 e23d bf2d a23e

weight_hh_l0 f4 [30, 10]
-0.21074905 -0.18486775 0.22257072 0.06989199 0.21992467 -0.24075633 0.12355539 0.028025886
-0.07229185 -0.038869835 -0.19540365 0.13729088 -0.014198523 0.11517551 -0.133372 -0.0026185592
0.13950129 -0.27642703 -0.021742195 -0.06697081 -0.41632667 0.14990984 -0.013918078 0.4622439
0.33664167 0.4391542 0.1156132 -0.26202765 0.08888147 -0.05135272 0.0988552 -0.07234927
0.1998725 -0.048405945 0.0024187304 0.24055701 0.06601956 -0.104980625 -0.21771821 -0.16191341
0.28841132 -0.26468024 0.2878774 0.4383155 -0.12060757 -0.17472495 0.081794456 -0.27117348
-0.06664298 0.14936438 0.06172922 0.027795164 -0.2399449 -0.07101601 0.3929053 0.4200042
-0.07847119 0.21382952 0.20629545 -0.082862765 0.20641442 0.32105148 -0.12422003 0.23763144
0.11173522 0.44424483 0.09304644 -0.043834817 0.23389457 -0.37191677 -0.103106946 0.21319443
0.06076178 0.39589277 0.22738682 0.01962645 0.0063496917 0.3416421 -0.19672558 -0.004481046
0.44930267 0.13979076 0.38002655 0.06877327 0.04807728 -0.47563633 -0.11343907 -0.36604202
0.16326489 -0.15026304 -0.06295543 -0.05503623 0.083422996 -0.147224 0.07503049 0.29882714
-0.26879635 0.50794965 0.030654978 -0.32154536 -0.16400455 0.4339563 0.0114705665 -0.34694523
-0.03852364 0.18364131 -0.20998232 -0.10685749 -0.44196355 0.103609845 -0.22291099 0.22238773
0.17331453 0.03362435 -0.13363177 -0.17300881 0.19255272 -0.13555914 -0.18794534 0.08122045
0.12935922 -0.119266 -0.23097135 0.24527453 0.20011799 -0.07994038 0.18551932 -0.0858636
0.11645376 -0.23183803 -0.07219465 -0.40975112 0.45084193 0.46676672 0.05947735 -0.026355028
-0.21230343 -0.0947995 -0.21716097 0.030562554 0.097812735 -0.37859917 0.118656375 0.11796109
-0.028495103 -0.38053268 0.41366944 -0.35129392 -0.17546321 -0.06335112 0.07958964 0.39195526
-0.34646195 -0.36710837 -0.4666514 0.32271415 0.2097483 0.130217 -0.2664413 -0.30944622
-0.2325859 -0.061055392 -0.24704456 0.2674061 -0.20331794 0.18919653 0.031756476 -0.21594413
-0.00056347554 -0.23217994 0.17911862 -0.13043575 -0.08608224 -0.26984304 0.15674348 -0.20012572
0.08139824 -0.059021104 0.099903904 0.22875647 0.1604953 -0.255284 0.36473843 0.04884325
0.06890082 -0.17700467 0.41660988 -0.13933237 -0.05424225 0.122630596 -0.09922177 -0.21981895
0.03127034 0.12813522 -0.4006027 0.022121977 0.12514703 -0.11197435 0.18440247 0.133583
-0.040888406 -0.29849684 0.29368532 0.16578962 0.34626657 -0.25236693 0.113066345 0.0314556
-0.27485725 -0.18308812 -0.032304943 0.04368705 0.16755816 -0.39234063 0.2636362 0.14497763
-0.009691883 -0.2872792 0.318581 0.11433451 0.012929769 -0.39411315 0.32479802 -0.015344333
-0.33770964 -0.41314596 0.3862564 0.05787084 -0.2986343 -0.09736026 -0.23825072 -0.13527541
-0.055991996 0.36937577 0.29999354 0.17755312 -0.0885088 -0.1298001 0.038081843 -0.041520324
0.28739005 0.1694708 0.13757508 0.114907295 -0.18658105 -0.27172056 -0.23247993 0.0565072
0.1398506 -0.34480426 -0.2858308 0.013978368 0.26151255 0.072186664 0.035435826 0.57631034
00000000: 99ce 57be f94d 3dbe 94e9 633e 8823 8f3d
00000010: ef33 613e d488 76be 9c0a fd3d 8b96 e53c
00000020: c00d 94bd fa35 1fbd e517 48be fb95 0c3e
00000030: eca0 68bc 23e1 eb3d ab92 08be 229c 2bbb
00000040: 6dd9 0e3e d887 8dbe b01c b2bc fe27 89bd
00000050: c528 d5be f781 193e a608 64bc 3cab ec3e
00000060: 4c5c ac3e d2d8 e03e 9dc6 ec3d 7d28 86be
00000070: 7d07 b63d 3b57 52bd 9874 ca3d db2b 94bd
00000080: 60ab 4c3e 5045 46bd 9083 1e3b 9454 763e
00000090: 4335 873d 1500 d7bd 86f1 5ebe a1cc 25be
000000a0: a6aa 933e 2b84 87be ab64 933e e46a e03e
000000b0: 1a01 f7bd 19eb 32be da83 a73d 40d7 8abe
000000c0: 1d7c 88bd faf2 183e c7d7 7c3d afb2 e33c
000000d0: 1eb4 75be d870 91bd e22a c93e ca0a d73e
000000e0: 81b5 a0bd 20f6 5a3e 1d3f 533e f4b3 a9bd
000000f0: 4d5e 533e dc60 a43e 1267 febd a855 733e
00000100: 6fd5 e43d 0f74 e33e 228f be3d 238c 33bd
00000110: 0f82 6f3e e06b bebe bc29 d3bd a44f 5a3e
00000120: 58e1 783d 75b2 ca3e 17d8 683e a6c7 a03c
00000130: 1311 d03b b7eb ae3e 6e72 49be bdd5 92bb
00000140: 000b e63e 4f25 0f3e d792 c23e 00d9 8c3d
00000150: afec 443d 9b86 f3be be52 e8bd dc69 bbbe
00000160: e92e 273e 8ede 19be c7ee 80bd ab6d 61bd
00000170: add9 aa3d e3c1 16be 96a9 993d dfff 983e
00000180: ad9f 89be fd08 023f 2620 fb3c 98a1 a4be
00000190: cff0 27be 852f de3e 0bef 3b3c cea2 b1be
000001a0: f7ca 1dbd 780c 3c3e 9b05 57be 1ad8 dabd
000001b0: 0c49 e2be 6631 d43d c742 64be 9cb9 633e
000001c0: 5d79 313e b0b9 093d c4d6 08be 3929 31be
000001d0: 8a2c 453e 04d0 0abe be74 40be e856 a63d
000001e0: be76 043e bc41 f4bd c183 6cbe 3f29 7b3e
000001f0: bbeb 4c3e c8b7 a3bd c7f8 3d3e 41d9 afbd
00000200: 4f7f ee3d f366 6dbe cada 93bd e6ca d1be
00000210: c1d4 e63e 0cfc ee3e 869e 733d 80e6 d7bc
00000220: 1266 59be 3e26 c2bd 725f 5ebe 525e fa3c
00000230: 0b52 c83d c0d7 c1be 1d02 f33d 9595 f13d
00000240: 906e e9bc 2ed5 c2be 7bcc d33e ccdc b3be
00000250: a1ac 33be 3bbe 81bd e5ff a23d 5cae c83e
00000260: 7663 b1be a1f5 bbbe efec eebe ca3a a53e
00000270: 42c8 563e 9b57 053e fe6a 88be bc6f 9ebe
00000280: 002b 6ebe 3815 7abd 40f9 7cbe 74e9 883e
00000290: 9432 50be bcbc 413e 1413 023d 7520 5dbe
000002a0: 34b6 13ba 94c0 6dbe df6a 373e f390 05be
000002b0: e34b b0bd de28 8abe 5d81 203e c2ed 4cbe
000002c0: 1fb4 a63d 1dc0 71bd 6b9a cc3d 233f 6a3e
000002d0: e158 243e 96b4 82be ffbe ba3e dc0f 483d
000002e0: e01b 8d3d b640 35be e44d d53e 25ad 0ebe
000002f0: 1f2d 5ebd c025 fb3d c934 cbbd 3818 61be
00000300: 5415 003d e135 033e cc1b cdbe 2639 b53c
00000310: 8b26 003e cf52 e5bd 00d4 3c3e fbc9 083e
00000320: 9a7a 27bd 94d4 98be ec5d 963e c1c4 293e
00000330: da49 b13e 3d36 81be 548f e73d 96d7 003d
00000340: 17ba 8cbe 747b 3bbe 3052 04bd 31f1 323d
00000350: 5e94 2b3e dfe0 c8be 53fb 863e 0475 143e
00000360: b4ca 1ebc 4216 93be 0d1d a33e 3628 ea3d
00000370: 62d7 533c 33c9 c9be ed4b a63e cc66 7bbc
00000380: 47e8 acbe de87 d3be 66c3 c53e f909 6d3d
00000390: 98e6 98be d164 c7bd fff7 73be a385 0abe
000003a0: dd57 65bd d21e bd3e c198 993e 7cd0 353e
000003b0: 1a44 b5bd 51ea 04be b5fb 1b3d 3711 2abd
000003c0: ca24 933e c189 2d3e 7be0 0c3e 8454 eb3d
000003d0: 1a0f 3fbe f51e 8bbe 380f 6ebe 1874 673d
000003e0: ff34 0f3e 2f8a b0be 6a58 92be 8605 653c
000003f0: f9e4 853e 9ad6 933d 2825 113d 1389 133f

bias_ih_l0 f4 [30]
0.098909974 0.15415393 0.38207242 -0.11658956 0.05493047 0.0753492 0.055230763 0.064603046
-0.3842048 0.2494684 0.07362272 0.09099356 -0.19925258 0.03150797 -0.5467145 0.0645693
-0.020208957 -0.2616008 -0.10454027 -0.42134154 0.04348779 0.35538152 0.0685201 0.1780702
0.33138722 0.1058412 -0.27822667 0.051982578 -0.045835923 -0.2109886
00000000: 5091 ca3d 87da 1d3e ff9e c33e 82c6 eebd
00000010: c6fe 603d ae50 9a3d a739 623d 9a4e 843d
00000020: 7eb6 c4be a574 7f3e 82c7 963d d55a ba3d
00000030: de08 4cbe 800e 013d 7bf5 0bbf e93c 843d
00000040: 418d a5bc 8af0 85be 3619 d6bd 14ba d7be
00000050: 4120 323d 91f4 b53e 4454 8c3d 0958 363e
00000060: 96ab a93e 45c3 d83d ba73 8ebe afeb 543d
00000070: 73be 3bbd 650d 58be

bias_hh_l0 f4 [30]
-0.075074136 0.3173817 0.15424411 0.31652027 0.076690406 0.43428203 0.46522957 -0.041092705
0.08493445 0.07885073 0.028612483 0.013633928 0.15552428 0.021490041 -0.24838403 -0.26527843
-0.30185038 -0.23670374 -0.451509 -0.0069491053 0.066325754 0.049677595 -0.30705595 -0.29343164
0.26546887 0.036645304 -0.0957184 0.3260391 0.053035107 -0.22388585
00000000: 78c0 99bd db7f a23e 2bf2 1d3e f20e a23e
00000010: dc0f 9d3d 375a de3e 9232 ee3e d350 28bd
00000020: 1df2 ad3d 7e7c a13d ba64 ea3c d760 5f3c
00000030: c241 1f3e e20b b03c 6258 7ebe 93d2 87be
00000040: 228c 9abe 7762 72be 302c e7be 52b5 e3bb
00000050: ccd5 873d bc7a 4b3d 7036 9dbe ac3c 96be
00000060: 89eb 873e 6319 163d 0208 c4bd 99ee a63e
00000070: 573b 593d 5542 65be

weight_ih_l0_reverse f4 [30, 10]
0.16435826 -0.11107979 0.14342569 0.18667255 0.18600696 0.24564102 -0.24866134 -0.19409986
-0.037277702 0.33712265 -0.3533269 -0.17137305 0.19995703 -0.19091946 -0.31586492 -0.14387187
0.20537281 0.013027628 0.02956873 -0.34310114 0.06959563 0.17547552 0.079734735 0.42763135
-0.19405556 -0.5281802 -0.42043093 -0.0062630693 0.25913846 0.32150644 -0.19011424 0.23030864
-0.1563101 -0.4017937 0.15740326 0.36706918 0.2920405 0.41346973 -0.19303544 -0.27450055
-0.3931784 0.3301912 0.16947307 0.003542318 0.03396568 -0.13161248 0.081680015 -0.34864488
0.02943116 -0.23265983 0.4489522 -0.27077788 0.051975995 0.19960737 -0.049843803 0.059011154
-0.057061512 -0.33167547 0.045092743 0.014987969 -0.44704607 0.24657129 0.121126495 0.2910402
-0.35442767 -0.17136359 0.18691823 -0.11845086 0.03210585 -0.32563084 0.28373444 -0.27767017
-0.003997489 -0.10642942 -0.11386959 -0.028421823 -0.019017965 -0.09594109 0.061028082 0.038664356
0.1678544 -0.13932414 -0.28429988 0.15933739 0.06252448 -0.07036663 0.2326731 0.30116138
0.3741126 0.07883276 0.037987735 -0.10191706 0.21948884 0.1324869 0.04870294 -0.17320043
-0.03402622 -0.07716757 0.16922231 0.2546312 -0.2267502 -0.195073 0.11083233 -0.08771257
-0.3733341 -0.0476029 0.23823313 -0.23493363 -0.07336098 -0.20761454 0.39176923 -0.23747118
-0.007891845 -0.36343074 -0.24431053 0.27447078 0.07535092 -0.22888367 0.056539204 -0.20826152
0.36370072 -0.43951678 -0.18601575 -0.17887908 -0.14792074 -0.41519916 -0.10097572 -0.38476726
0.06860308 0.32553402 -0.0112064015 -0.45901668 -0.1292835 0.07042614 -0.26184598 0.51511836
0.15026097 -0.37692475 -0.06537725 0.20351146 0.3058689 0.28763226 0.16602644 -0.069368325
0.02788897 0.11993465 -0.17144904 -0.3752757 0.25201938 -0.12356207 -0.14122519 0.21245612
0.32151812 -0.17778455 -0.52965313 0.38680926 -0.0712673 0.25733754 0.05457049 0.07490675
-0.27197257 0.30686426 0.06029977 -0.21778244 0.29824466 0.052224852 -0.030522646 -0.114559606
0.31522116 0.33995724 -0.23516627 0.26267347 -0.19182393 -0.07508318 -0.09180687 -0.45260334
-0.5615877 -0.07946237 0.3394247 -0.08829004 0.30109024 0.015925568 0.1725419 0.2346567
0.021775505 0.1855756 0.22996946 0.24301 0.045794558 -0.02373287 -0.14133693 0.13099335
-0.21872626 -0.22740397 -0.009397956 0.13237749 -0.045080964 0.15697758 0.15539458 0.11888951
0.40274912 -0.36298382 -0.023679685 -0.058700833 -0.21258898 0.38495132 -0.16561764 -0.16496304
-0.09330756 0.07004202 -0.46726245 0.24911767 0.4138318 -0.09573603 -0.1178978 -0.41459557
-0.17492266 -0.38416073 0.27569458 -0.07993819 0.009768798 0.2622935 -0.44563517 0.08307878
0.3123241 0.41600573 -0.31390402 0.08837 -0.084192604 0.32737637 0.33965167 -0.2356014
-0.23167574 -0.061564777 0.3028434 -0.28711224 0.10984223 0.025700131 -0.3776583 0.015957788
0.41769323 0.14620249 -0.1713724 0.09399776 0.063358694 -0.14886855 -0.115527585 -0.2024616
0.37766132 -0.060570035 -0.08442991 -0.014787958 -0.1494613 -0.09199919 0.44465083 -0.3374128
00000000: 884d 283e cd7d e3bd 2fde 123e 1727 3f3e
00000010: 9c78 3e3e 5289 7b3e 14a1 7ebe 1dc2 46be
00000020: 81b0 18bd 579b ac3e 43e7 b4be 6b7c 2fbe
00000030: 89c1 4c3e 6480 43be 0cb9 a1be 2653 13be
00000040: 404d 523e d571 553c 1f3a f23c f4aa afbe
00000050: 2788 8e3d dbaf 333e f74b a33d 7ff2 da3e
00000060: 80b6 46be d136 07bf b942 d7be 6f3a cdbb
00000070: ccad 843e 7e9c a43e 4fad 42be 07d6 6b3e
00000080: c10f 20be e7b7 cdbe 522e 213e 7ef0 bb3e
00000090: 5586 953e 4eb2 d33e 15ab 45be 568b 8cbe
000000a0: ae4e c9be d20e a93e 598a 2d3e 3c26 683b
000000b0: 991f 0b3d 6cc5 06be da47 a73d 9581 b2be
000000c0: 9e19 f13c 613e 6ebe 10dd e53e 66a3 8abe
000000d0: c8e4 543d e065 4c3e 0429 4cbd aeb5 713d
000000e0: 55b9 69bd 5ed1 a9be 2bb3 383d 1990 753c
000000f0: 39e3 e4be 2f7d 7c3e 2b11 f83d 3903 953e
00000100: 8b77 b5be f079 2fbe 7e67 3f3e 5d96 f2bd
00000110: 6c81 033d 16b9 a6be a445 913e c92a 8ebe
00000120: 5efd 82bb abf7 d9bd 7634 e9bd e2d4 e8bc
00000130: 90cb 9bbc c37c c4bd 95f8 793d 845e 1e3d
00000140: 06e2 2b3e fdaa 0ebe c18f 91be 5729 233e
00000150: d60c 803d 611c 90bd db41 6e3e d331 9a3e
00000160: b08b bf3e 1273 a13d 0799 1b3d e4b9 d0bd
00000170: afc1 603e a5aa 073e bc7c 473d 745b 31be
00000180: 145f 0bbd 080a 9ebd 9d48 2d3e 055f 823e
00000190: 3431 68be 37c1 47be 10fc e23d a6a2 b3bd
000001a0: a625 bfbe 42fb 42bd 63f3 733e 7192 70be
000001b0: 483e 96bd e898 54be fa95 c83e a52b 73be
000001c0: cc4c 01bc 9813 babe 8a2c 7abe 6f87 8c3e
000001d0: 9551 9a3d 7b60 6abe a795 673d 8242 55be
000001e0: fb36 ba3e 5808 e1be ea7a 3ebe 142c 37be
000001f0: 8978 17be fc94 d4be 5ccc cebd 3700 c5be
00000200: c67f 8c3d 65ac a63e 0e9b 37bc 3c04 ebbe
00000210: e562 04be 953b 903d ad10 86be ccde 033f
00000220: 03de 193e 48fc c0be 82e4 85bd 4f65 503e
00000230: d99a 9c3e 8944 933e d602 2a3e fb10 8ebd
00000240: 6977 e43c 4ca0 f53d 5690 2fbe 2324 c0be
00000250: af08 813e 1c0e fdbd 569d 10be 198e 593e
00000260: 069e a43e 270d 36be 5997 07bf dd0b c63e
00000270: 97f4 91bd bfc1 833e 4e85 5f3d b668 993d
00000280: fd3f 8bbe 501d 9d3e e4fc 763d 5c02 5fbe
00000290: 86b3 983e bae9 553d a10a fabc 3a9e eabd
000002a0: ab64 a13e e00e ae3e 6dcf 70be 237d 863e
000002b0: 7e6d 44be 36c5 99bd 3e05 bcbd a0bb e7be
000002c0: 36c4 0fbf 2bbd a2bd 13c9 ad3e 69d1 b4bd
000002d0: 8028 9a3e 5676 823c d3ae 303e d949 703e
000002e0: 8b62 b23c 8807 3e3e 1d7d 6b3e 9dd7 783e
000002f0: 1393 3b3d 706b c2bc a1ba 10be 1f23 063e
00000300: c7f9 5fbe 96dc 68be e2f9 19bc f78d 073e
00000310: d1a6 38bd bbbe 203e c21f 1f3e 587c f33d
00000320: 2235 ce3e 04d9 b9be e6fb c1bc 4970 70bd
00000330: edb0 59be 5718 c53e ac97 29be 12ec 28be
00000340: 0918 bfbd 3172 8f3d 063d efbe b418 7f3e
00000350: c3e1 d33e 4011 c4bd 6774 f1bd df45 d4be
00000360: ed1e 33be b7b0 c4be d727 8d3e a2b6 a3bd
00000370: 4f0d 203c 554b 863e 4b2a e4be 3525 aa3d
00000380: f2e8 9f3e b4fe d43e 07b8 a0be 55fb b43d
00000390: 2c6d acbd e09d a73e d3e6 ad3e 7e41 71be
000003a0: 683c 6dbe 592b 7cbd 4a0e 9b3e 6000 93be
000003b0: f7f4 e03d 1589 d23c 6e5c c1be e8b9 823c
000003c0: e3db d53e 1bb6 153e 3f7c 2fbe e681 c03d
000003d0: 34c2 813d ff70 18be ba99 ecbd 1852 4fbe
000003e0: d35c c13e 4918 78bd 97e9 acbd 3149 72bc
000003f0: 620c 19be 126a bcbd 46a9 e33e 5fc1 acbe

weight_hh_l0_reverse f4 [30, 10]
-0.22042312 -0.10876927 -0.21780439 0.072411746 0.13784142 0.18237045 -0.36133152 -0.16687165
0.019424438 -0.06890703 -0.33570638 0.29100534 -0.13064985 0.10167749 -0.16740227 -0.25702065
0.32873094 -0.116168655 -0.056333367 0.14233008 0.0030437876 0.21626706 -0.22654836 0.005087265
0.00011109529 0.049351666 -0.4391775 0.090606034 0.23043995 0.009119382 -0.16927817 0.26698208
-0.074805446 0.026172696 -0.033567686 0.1255031 -0.11951665 0.30788255 -0.29510778 0.05490129
-0.015984522 0.46843845 -0.252052 0.16282405 0.035933886 -0.073619455 -0.22138889 0.021999286
0.12124219 -0.11094032 0.27057406 -0.17980666 0.1799423 0.031025246 0.2022779 0.08060037
-0.2764813 0.32139894 0.3258311 0.10396716 0.06910522 0.4918748 -0.32345325 0.35254166
-0.42157647 -0.15261614 -0.22251782 -0.4452581 0.05225541 -0.18951856 0.11485308 0.4662898
-0.38075793 0.45022866 -0.07091603 -0.058373634 -0.3244107 -0.43008775 -0.029078461 -0.032446127
-0.31560552 -0.08250187 -0.44910422 -0.28114316 -0.14376472 0.08642728 -0.48377535 0.05881113
0.22284675 -0.105381794 0.24952628 0.30238536 -0.21148823 0.22413304 -0.1480725 -0.12073748
-0.41466683 -0.38176137 -0.3091291 -0.35364282 -0.034702245 -0.021242354 0.23696402 0.063872226
-0.01062503 -0.39130622 -0.16503102 -0.16665544 0.069502294 0.27871183 0.10615909 0.19860937
0.11182261 0.15287736 -0.390886 0.046559125 -0.17075461 -0.15177608 0.29795048 0.06248186
-0.42338583 0.074152105 0.021405466 -0.3875335 -0.34283814 -0.35333076 0.32201815 -0.069200106
0.13439147 -0.021114675 -0.35239175 -0.18280746 0.2833107 -0.19149953 0.054051377 -0.038863365
-0.3609247 0.19444889 -0.04361643 0.17978916 -0.16853404 -0.07766032 0.15268436 -0.09987659
-0.213071 -0.015922796 0.18340117 0.06709349 0.29591575 0.37181893 -0.3522808 0.23121485
0.35406855 -0.33012056 -0.1882823 -0.057472274 -0.07081583 0.30697107 -0.19363773 0.025523793
0.054985818 -0.37858343 -0.36469018 0.23685466 -0.24732421 -0.19831803 -0.22014463 -0.41201377
0.4132563 -0.15543103 -0.060638417 0.18002093 -0.24031034 -0.035046767 -0.19924913 0.0021795118
-0.037009206 0.018944427 -0.06951506 0.15223484 -0.0030347332 -0.11008857 0.15011206 -0.24898864
-0.039735228 0.13747163 -0.07685943 0.1881305 0.33918265 -0.088447995 -0.11766028 -0.13688141
-0.13168555 -0.15643342 0.1891306 0.308295 0.35773388 -0.18145902 -0.121616885 0.354723
0.19128996 0.13643001 0.494986 -0.10425413 0.35766253 0.3807658 -0.040414568 -0.16627444
-0.35323608 -0.075988114 0.011349537 0.21546413 -0.19447358 -0.034816764 0.13417676 0.16868293
-0.23348388 0.14281435 -0.106615566 0.10242203 -0.24295788 -0.029242445 0.4349711 0.22187106
0.17900978 0.19199005 0.117235996 0.51560897 -0.23793155 -0.15066901 -0.055586517 0.180085
-0.1051458 -0.10249299 -0.3220199 0.23729677 -0.03826943 0.107067294 -0.2659264 -0.037358813
-0.0661145 -0.53966665 0.11042223 -0.05474258 0.3782301 -0.27817005 -0.28365234 -0.07814386
-0.09144967 0.23177549 0.3611461 -0.13493672 0.056801014 0.4106308 -0.2443255 -0.03220886
00000000: 99b6 61be 6cc2 debd 1d08 5fbe 9c4c 943d
00000010: 4d26 0d3e 52bf 3a3e 7200 b9be 67e0 2abe
00000020: 0020 9f3c 211f 8dbd b5e1 abbe a7fe 943e
00000030: 13c9 05be 4a3c d03d 806b 2bbe 3698 83be
00000040: 6c4f a83e d5e9 edbd d1bd 66bd fabe 113e
00000050: 487a 473b 1d75 5d3e 4bfc 67be 12b3 a63b
00000060: d4fb e838 f924 4a3d e0db e0be a88f b93d
00000070: 73f8 6b3e 7669 153c 4257 2dbe e0b1 883e
00000080: 9933 99bd 1f68 d63c 457e 09bd e283 003e
00000090: 25c5 f4bd c8a2 9d3e 5e18 97be 2de0 603d
000000a0: f9f1 82bc 2ad7 ef3e f60c 81be 59bb 263e
000000b0: 692f 133d ccc5 96bd c5b3 62be d937 b43c
000000c0: d34d f83d ae34 e3bd af88 8a3e 3d1f 38be
000000d0: cb42 383e a828 fe3c f021 4f3e cf11 a53d
000000e0: f58e 8dbe 678e a43e 55d3 a63e bcec d43d
000000f0: 0a87 8d3d 04d7 fb3e aa9b a5be 5780 b43e
00000100: dfd8 d7be 6847 1cbe b6db 63be dff8 e3be
00000110: c509 563d 2711 42be 1738 eb3d 89bd ee3e
00000120: b4f2 c2be 5f84 e63e 6c3c 91bd 3119 6fbd
00000130: 2919 a6be 7634 dcbe f435 eebc 3be6 04bd
00000140: 0c97 a1be bef6 a8bd fdf0 e5be fff1 8fbe
00000150: 0f37 13be c900 b13d 67b1 f7be f0e3 703d
00000160: f031 643e 69d2 d7bd d183 7f3e 41d2 9a3e
00000170: 5f90 58be 2283 653e 51a0 17be 3645 f7bd
00000180: 364f d4be 3a76 c3be 2b46 9ebe ac10 b5be
00000190: f123 0ebd 7204 aebc b2a6 723e 71cf 823d
000001a0: 9b14 2ebc 4a59 c8be e4fd 28be b9a7 2abe
000001b0: 3857 8e3d 51b3 8e3e f069 d93d 4160 4b3e
000001c0: 4103 e53d e28b 1c3e 3622 c8be c8b4 3e3d
000001d0: 4cda 2ebe 306b 1bbe f78c 983e fbec 7f3d
000001e0: 07c6 d8be 0fdd 973d 845a af3c ca6a c6be
000001f0: 7b88 afbe c5e7 b4be 90df a43e c9b8 8dbd
00000200: eb9d 093e aff8 acbc b16c b4be e131 3bbe
00000210: 1a0e 913e 7418 44be fa64 5d3d 312f 1fbd
00000220: 1fcb b8be 9c1d 473e 24a7 32bd a61a 383e
00000230: 3094 2cbe 600c 9fbd 4a59 1c3e 198c ccbd
00000240: 492f 5abe 8670 82bc 84cd 3b3e 5068 893d
00000250: 4582 973e 0d5f be3e 265e b4be 96c3 6c3e
00000260: 7948 b53e 9005 a9be 13cd 40be 0c68 6bbd
00000270: e407 91bd 502b 9d3e f848 46be 4617 d13c
00000280: cf38 613d b0d5 c1be acb8 babe 078a 723e
00000290: 8f42 7dbe e213 4bbe 986d 61be 78f3 d2be
000002a0: 5496 d33e 5029 1fbe fd5f 78bd 6857 383e
000002b0: ea13 76be 338d 0fbd f707 4cbe 24d6 0e3b
000002c0: f796 17bd 5831 9b3c e95d 8ebd 73e3 1b3e
000002d0: 60e2 46bb 1e76 e1bd fab6 193e e1f6 7ebe
000002e0: 68c1 22bd 5dc5 0c3e 7a68 9dbd 48a5 403e
000002f0: 59a9 ad3e 3924 b5bd dff7 f0bd a42a 0cbe
00000300: 94d8 06be 1530 20be 74ab 413e d8d8 9d3e
00000310: e528 b73e 65d0 39be 4612 f9bd 419e b53e
00000320: 84e1 433e 4fb4 0b3e ce6e fd3e 3083 d5bd
00000330: 8b1f b73e bcf3 c23e bf89 25bd d943 2abe
00000340: 5cdb b4be a89f 9bbd 69f3 393c a1a2 5c3e
00000350: 1524 47be 069c 0ebd a265 093e 38bb 2c3e
00000360: 6616 6fbe ed3d 123e 4359 dabd a4c2 d13d
00000370: f3c9 78be da8d efbc 88b4 de3e 2b32 633e
00000380: 574e 373e 0a99 443e 6d19 f03d f3fe 033f
00000390: 54a4 73be fa48 1abe b0ae 63bd 3468 383e
000003a0: ae56 d7bd d8e7 d1bd cbdf a4be edfd 723e
000003b0: 68c0 1cbd 1946 db3d 8127 88be 8e05 19bd
000003c0: 0a67 87bd 9827 0abf 0d25 e23d c139 60bd
000003d0: 60a7 c13e 4e6c 8ebe e13a 91be e309 a0bd
000003e0: f749 bbbd 8e56 6d3e 24e8 b83e da2c 0abe
000003f0: 2ea8 683d 333e d23e 7730 7abe 70ed 03bd

bias_ih_l0_reverse f4 [30]
-0.18214865 0.09728505 0.059609022 -0.08740119 0.26717418 -0.019729706 -0.07311529 -0.092147894
0.41107872 0.19141635 0.050335664 -0.08814245 -0.24641524 0.03782137 0.18887803 -0.19782321
-0.21168317 -0.15757781 -0.14047524 0.10247269 -0.17274079 -0.08003313 -0.12795113 0.39062876
0.13455746 0.3583013 -0.29441714 0.06376391 -0.047376752 -0.22098534
00000000: 2d85 3abe 623d c73d 9728 743d 65ff b2bd
00000010: 0ecb 883e 31a0 a1bc 78bd 95bd 09b8 bcbd
00000020: e978 d23e a602 443e c52c 4e3d 0784 b4bd
00000030: 4754 7cbe 95ea 1a3d 3e69 413e 2b92 4abe
00000040: 79c3 58be 145c 21be bed8 0fbe 34dd d13d
00000050: f6e2 30be 69e8 a3bd 9f05 03be 7e00 c83e
00000060: 6ec9 093e 4573 b73e d8bd 96be a796 823d
00000070: 200e 42bd fb49 62be

bias_hh_l0_reverse f4 [30]
0.22490127 -0.23844217 0.20449296 -0.19353113 0.018522909 -0.17678063 -0.08271673 0.4634184
0.13337804 0.25115773 -0.44720206 -0.23185517 -0.09933799 0.22762547 -0.22381909 0.10700901
0.0031134258 0.15493982 0.24048363 -0.27955288 0.25207704 0.30997136 -0.27128547 -0.036716726
-0.20953847 -0.17845756 -0.15205246 -0.11249744 0.18213199 -0.18097307
00000000: 854c 663e 2f2a 74be 9a66 513e 062d 46be
00000010: 5bbd 973c fb05 35be 6467 a9bd 2d45 ed3e
00000020: 4194 083e bf97 803e abf7 e4be 716b 6dbe
00000030: b771 cbbd a716 693e d530 65be 8a27 db3d
00000040: 9e0a 4c3b 8ba8 1e3e 5741 763e 8e21 8fbe
00000050: 3e10 813e 91b4 9e3e eee5 8abe 4764 16bd
00000060: 4191 56be 94bd 36be a4b3 1bbe 0f65 e6bd
00000070: cf80 3a3e 0151 39be

weight f4 [10, 20]
0.050854955 -0.08242838 -0.025835348 0.13730606 0.3220178 -0.4341537 -0.29706618 0.13625114
-0.03447386 0.27689353 0.1260222 -0.22738495 0.35632208 -0.032071285 0.19331616 0.37889022
-0.0033049982 0.2967401 -0.15821755 -0.2802771 -0.2119397 -0.21909198 -0.102179036 0.33647847
0.024228677 0.2949321 -0.2883326 0.29223186 -0.071873955 -0.16314055 -0.20386894 -0.14557636
-0.44440633 0.30538705 -0.18479745 0.19538848 -0.38288945 -0.20110191 -0.11001395 -0.34519497
0.28571022 0.26133117 -0.30059716 0.208544 0.34886 0.064817004 -0.10707316 -0.28947344
0.14528866 0.24737456 0.25217155 -0.27674466 0.23327097 0.19433194 0.16474475 0.32410178
-0.089062564 0.1025331 -0.27038437 0.23439553 0.32438084 0.20450523 0.2729979 -0.16895823
-0.07438427 -0.17866313 -0.08372933 0.2274048 0.086437665 -0.05651373 -0.18897134 0.21036994
0.18447907 0.032679547 -0.16685496 0.3053989 0.1526407 0.16703394 -0.18299633 0.24460934
-0.3458977 0.059980728 -0.16035339 -0.21780841 -0.33033574 0.4208093 0.10162765 0.045798633
-0.20536466 -0.36429688 -0.06991101 0.15619649 -0.2542128 0.3306985 -0.21849579 0.25603074
-0.22059348 -0.2636072 -0.022762323 -0.05514846 0.088145025 -0.02137936 0.20793691 0.051449995
-0.089722976 -0.009469989 -0.0744885 -0.030796783 -0.045156647 0.15933928 0.031957634 0.019846756
0.048632633 0.073657006 -0.051153388 -0.18352316 0.072771475 -0.19338685 0.17211896 0.03946827
0.07364289 -0.16671821 -0.14695941 0.04296081 -0.08110052 0.30441225 -0.14269164 0.11206392
-0.26564926 0.029882113 -0.12946482 0.25740725 -0.48863205 0.04221768 -0.0855201 0.21470587
-0.27055478 -0.21319582 0.128214 -0.29816914 -0.2282363 0.028115405 -0.1960866 0.046483263
-0.35455883 0.27839926 -0.2781955 0.119091175 -0.2887732 -0.3027023 0.049345296 0.1859925
-0.16864935 0.17030989 -0.29215306 0.16727349 -0.2996585 0.025759388 0.019123817 -0.15391092
0.2696684 0.20153628 0.0683475 -0.021947432 0.37858784 -0.40889385 0.13173774 -0.15056877
-0.24884303 -0.13331558 0.4035665 -0.09689154 0.26033366 -0.12155007 -0.08857388 0.06243281
-0.1368121 -0.030153086 -0.119100474 0.009442687 0.057721633 0.21673745 -0.047856886 0.25812435
0.18317203 -0.067184046 -0.25871742 0.2908269 0.003804815 -0.16745235 -0.2451608 0.17546214
-0.31069434 0.11456264 0.124474496 -0.15690765 -0.097765215 -0.09770075 0.2424268 -0.055157226
00000000: 494d 503d 36d0 a8bd a7a4 d3bc f699 0c3e
00000010: 84df a43e 6549 debe 0f19 98be 6b85 0b3e
00000020: 7634 0dbd fdc4 8d3e f70b 013e 9ad7 68be
00000030: d96f b63e 2e5d 03bd acf4 453e e6fd c13e
00000040: ab98 58bb 52ee 973e c803 22be 7b80 8fbe
00000050: b906 59be a659 60be 3e43 d1bd e846 ac3e
00000060: 387b c63c 5701 973e 55a0 93be 6a9f 953e
00000070: a732 93bd 510e 27be 05c3 50be f811 15be
00000080: 3a89 e3be b15b 9c3e 8b3b 3dbe eb13 483e
00000090: 160a c4be a9ed 4dbe fe4e e1bd 65bd b0be
000000a0: 9c48 923e 33cd 853e dfe7 99be 8f8c 553e
000000b0: c79d b23e c7be 843d 2c49 dbbd dd35 94be
000000c0: 8dc6 143e c24f 7d3e a11c 813e 7ab1 8dbe
000000d0: 96de 6e3e f4fe 463e d9b2 283e abf0 a53e
000000e0: 6f66 b6bd e0fc d13d d26f 8abe 6205 703e
000000f0: 3f15 a63e d269 513e 61c6 8b3e 6303 2dbe
00000100: c856 98bd 78f3 36be 487a abbd cedc 683e
00000110: 3b06 b13d f17a 67bd b481 41be 386b 573e
00000120: 15e8 3c3e fdda 053d 07dc 2abe 3f5d 9c3e
00000130: d84d 1c3e f20a 2b3e 6463 3bbe df7a 7a3e
00000140: 8119 b1be 5aae 753d ae33 24be 2b09 5fbe
00000150: c421 a9be 5174 d73e 2822 d03d 5997 3b3d
00000160: 1d4b 52be 1f85 babe 812d 8fbd f9f1 1f3e
00000170: 2e28 82be 5051 a93e 5cbd 5fbe 7616 833e
00000180: 42e3 61be 86f7 86be 0d78 babc 5ae3 61bd
00000190: 6185 b43d c523 afbc 6aed 543e 3bbd 523d
000001a0: aec0 b7bd 0328 1bbc 6d8d 98bd 8949 fcbc
000001b0: 2df6 38bd d629 233e 02e6 023d aa95 a23c
000001c0: 0333 473d 7cd9 963d 3786 51bd 7fed 3bbe
000001d0: 3609 953d 3407 46be f43f 303e 7ba9 213d
000001e0: 15d2 963d 2eb8 2abe 877c 16be adf7 2f3d
000001f0: 0818 a6bd ecdb 9b3e c21d 12be c581 e53d
00000200: 2e03 88be 55cb f43c 6d92 04be e2ca 833e
00000210: fb2d fabe 72ec 2c3d 2a25 afbd dbdb 5b3e
00000220: 2886 8abe 0150 5abe 884a 033e a0a9 98be
00000230: c7b6 69be 4752 e63c edca 48be 3c65 3e3d
00000240: bc88 b5be 598a 8e3e a46f 8ebe 13e6 f33d
00000250: 15da 93be ccfb 9abe 4b1e 4a3d d174 3e3e
00000260: 6ab2 2cbe b765 2e3e 1695 95be be49 2b3e
00000270: d76c 99be 5a05 d33c 8da9 9c3c d39a 1dbe
00000280: fa11 8a3e 875f 4e3e c6f9 8b3d 1acb b3bc
00000290: 44d6 c13e 895a d1be 42e6 063e b32e 1abe
000002a0: b5d0 7ebe e183 08be 45a0 ce3e 126f c6bd
000002b0: 744a 853e 3eef f8bd 3966 b5bd 8cb9 7f3d
000002c0: 7918 0cbe 9b03 f7bc f3ea f3bd 80b5 1a3c
000002d0: 856d 6c3d 6cf0 5d3e 9505 44bd e028 843e
000002e0: 7391 3b3e ca97 89bd 9c76 84be 43e7 943e
000002f0: 345a 793b a178 2bbe 6f0b 7bbe 59ac 333e
00000300: 5413 9fbe d19f ea3d 7cec fe3d 66ac 20be
00000310: 2139 c8bd 5517 c8bd bb3e 783e 8bec 61bd

bias f4 [10]
0.009578057 0.14828818 0.20307477 -0.006128503 0.2382659 -0.19210805 0.21620746 -0.0068768454
0.17719075 0.13351478
00000000: 48ed 1c3c dbd8 173e d5f2 4f3e 9cd1 c8bb
00000010: fafb 733e f9b7 44be 7d65 5d3e 2957 e1bb
00000020: 7e71 353e 19b8 083e

weight f4 [5, 10]
0.42715496 -0.103206836 0.5100551 -0.06428166 -0.47070628 -0.16295363 -0.4430933 -0.20424551
0.2397536 -0.36361265 -0.47649315 -0.425225 -0.28171918 0.2980472 0.14036438 -0.28956643
-0.3313144 0.020897849 -0.12001139 -0.38118738 0.21187072 -0.28028968 -0.31622002 0.48114163
-0.5187493 -0.097982794 0.06896886 -0.31831732 -0.16416173 0.28893882 -0.3651989 0.27421322
0.29072693 0.036340855 0.021334661 -0.06607464 0.07077907 0.15949157 -0.5155361 -0.13979568
-0.16402078 0.4852056 -0.40098715 -0.4702045 0.20231749 0.2802022 0.53487456 0.27776697
-0.35519353 0.052614026
00000000: 0eb4 da3e 1b5e d3bd f992 023f 1aa6 83bd
00000010: 6a00 f1be 51dd 26be 20dd e2be bc25 51be
00000020: f881 753e 702b babe e9f6 f3be 17b7 d9be
00000030: 7f3d 90be a599 983e aebb 0f3e 0d42 94be
00000040: 0ba2 a9be f731 ab3c 88c8 f5bd fe2a c3be
00000050: a3f4 583e 2182 8fbe 97e7 a1be 3258 f63e
00000060: c1cc 04bf 34ab c8bd 8c3f 8d3d 7dfa a2be
00000070: 031a 28be caef 933e 5afb babe ad65 8c3e
00000080: 29da 943e 26da 143d 07c6 ae3c 2452 87bd
00000090: 9ef4 903d c251 233e 2dfa 03bf 9926 0fbe
000000a0: 10f5 27be de6c f83e 304e cdbe a5be f0be
000000b0: 512c 4f3e aa76 8f3e 8aed 083f 7937 8e3e
000000c0: eddb b5be ce81 573d

bias f4 [5]
-0.1358244 -0.13359702 -0.094791554 -0.26342 -0.01406864
00000000: 8d15 0bbe a8cd 08be 1322 c2bd fcde 86be
00000010: 2780 66bc
