proyecto_final/model_lstm_ex_1.pt (torch, 182966 bytes, 13 tensors)

weight f4 [4221, 10]
00000000: 0000 0000 0000 0000 0000 0000 0000 0000
00000010: 0000 0000 0000 0000 0000 0000 0000 0000
00000020: 0000 0000 0000 0000 1012 f73e 568a e73e
00000030: 4be6 6bbd 115b 9c3f f1ae 953f 751a 3fbe
00000040: 99f5 b6bf 0a92 ddbf 88f2 f23e 4e02 433f
00000050: 5af7 363f e253 bebf 24a3 c5be 7dce e43f
00000060: 6395 563f 4270 1dbf 8d4d a9be e604 cc3d
00000070: 3ca1 ba3f 4bad d13f 30b8 6e3f 5898 57bf
00000080: 050b fcbe 8c2a c43d 1110 06bf cad0 ab3d
00000090: 313e f53e 9a02 a43d 6a2c 1a3f ffb3 da3e
000000a0: 5395 65be ee33 4e3f 1518 62be 15cb 2f3e
000000b0: d07a 103f 3d87 0e40 c455 afbf 7b5b c2bf
000000c0: 12d8 37bf d05f 683f f680 8e3f ef31 493e
000000d0: 9545 86be 2a6f d4be 0279 103f 78eb 06bf
000000e0: 91f1 e0be 2ffc 223f 7ed0 c73f e2ff 5640
000000f0: 5ab3 cabf 23a8 b7bf a34f f23f 3f67 1fbf
00000100: 6d92 14bf e3ef 403f 7412 893f 02bb 993f
00000110: 07bf b7bf 9678 2640 e5ff 03bf c0c5 2e3e
00000120: 7458 bdbf 77e4 1cbf b151 88be 698c 25bf
00000130: 0a25 99bf 746c 8d3f b0bd 863d 1269 703f
00000140: ada9 3dbd 3da4 583f 6da8 42bf af97 483e
00000150: 339e 3b3f bfcf a7be 0ebc 9e3f 8afb 8e3e
00000160: c890 7bbe 8d4d 0840 3d6b fcbf 7488 32bd
00000170: 0ee5 9bbf 8759 5fbf d635 63bd 4ce0 6d3f
00000180: 52e0 e63f 14a1 95bf abea 1b3e 0a6f 0f3f
00000190: abdd 24c0 73db bdbf 5f00 d7be f79f ec3e
000001a0: 4751 983d 2fe3 663e b92d 0f3f 4b3e 1c3f
000001b0: c0a9 683e 64c1 87bf 0109 703f 02fc 72bf
000001c0: 1d58 1dbe 4e13 24c0 1ea7 543d 3935 fdbb
000001d0: 6ccf 673f 4631 6a3e fbca 46bf adab 7f3d
000001e0: babb 07bf 03b0 d8be 729a ed3f bd00 08bf
000001f0: 4144 003e 8238 9d3f d0cf 623f 9cd8 bd3f
00000200: 4d77 75bf d2b9 aabe df0d 45bf bf01 ba3e
00000210: 96de 2a3f cea6 8c3e 1346 0940 deac 77bf
00000220: e081 84be 3701 163e 6e77 d8be ef0e 86bf
00000230: 3f15 9cbe d95d 70bf 3c6d fcbe 10de e03e
00000240: 4229 b3be 7f74 223e b660 db3e 1960 a13f
00000250: 0c87 fe3d 3e38 873e c78a 1ebe 5f03 43be
00000260: 7d7c c73d ef0c 34bf 284f f1bf 06e4 953e
00000270: 2560 19bf 67f6 f33e c9ab a33d e8f2 7e3e
00000280: 6696 6f3f 5c72 58bf 8515 683e 34f9 1cba
00000290: bd09 5a3f 1ac2 00bf a72b 5d3f 16be 163f
000002a0: a5e5 503e ad79 1d3e 833b 7cbd ff60 a13e
000002b0: 98fd c7be cd16 8ebf e1a9 8c3e 4bdc b6bf
000002c0: 1eb1 0ebe 030d 65be 93cc d1bf 3210 63be
000002d0: 86e5 973f aec7 d5bd ad12 e93f d65c 2c3f
000002e0: e53e 68bf db73 5fbf 2c4d a03f 847b 493e
000002f0: 9bd5 533f be24 54bf 20b8 90bf 4bf7 9fbf
00000300: 2189 c1be 49f4 b63e de3d 263f 2848 453e
00000310: 79c5 5fbd dfcf 373f a05e fdbd 7859 a33f
00000320: acb7 f63c d3b3 8bbf 63f6 ef3e 5317 0b3f
00000330: 708f 403f 04cb a0bf d09b 123f ba39 25bf
00000340: 638e 9d3f 037c c23d fae7 863f aa34 4b3f
00000350: 18bb 9bbf 35f4 683f 47de aabe e052 b6bf
00000360: 4069 5f3f 0820 8f3f 8235 0abf 3c9e 2e3f
00000370: 2994 983e fc05 14be 19aa 5ebf 8c6d 0cbe
00000380: 35ef 78be 5ffd bc3f d178 f73d 2a91 9c3e
00000390: ccf0 04bd 2029 3c3f 6378 dfbe 3565 9abf
000003a0: a648 0bbd bec6 bbbe 0bd6 30bf 0d51 3f3f
000003b0: 68af 32bf 448a 813f 96aa 833f be12 efbf
000003c0: 792e d2bf 2df7 d3bf 490c 85bb 9105 65bf
000003d0: d489 b33f 64d1 8ebd 4a0a 383f 6d95 b0bd
000003e0: 3051 82be 71bc 803f 3031 853f 834b 03bf
000003f0: 99bd 78bf 983f ce3b 30fa 0640 2b18 0f3f
0.0 0.0 0.0 0.0 0.0 0.0 0.0 0.0
0.0 0.0 0.48255968 0.4522273 -0.05759267 1.2215291 1.1694013 -0.18662436
-1.42937 -1.7310193 0.47450662 0.7617539 0.7147118 -1.4869349 -0.3860103 1.7875515
0.83821696 -0.61499417 -0.3306698 0.09961872 1.4580455 1.638101 0.932498 -0.84216833
-0.49227157 0.09578428 -0.52368265 0.08389433 0.4789901 0.08008309 0.6022402 0.4271545
-0.22420244 0.8054799 -0.22079499 0.17167313 0.56437397 2.2270043 -1.3698049 -1.5184168
-0.7181407 0.907712 1.1133106 0.19647954 -0.26224962 -0.4149106 0.56434643 -0.52703047
-0.439343 0.6366605 1.5610502 3.3593678 -1.5835984 -1.4348186 1.8930553 -0.62266916
-0.5803593 0.7536604 1.0708756 1.2010195 -1.4355172 2.60111 -0.5156234 0.17067623
-1.4792619 -0.6128611 -0.26624826 -0.64667374 -1.1964428 1.1048722 0.06579149 0.93910325
-0.046304394 0.8462561 -0.7603825 0.19589113 0.7328827 -0.32775685 1.240114 0.27926284
-0.24566948 2.1297333 -1.9720227 -0.043587163 -1.2179277 -0.8724598 -0.055471264 0.92920375
1.8037207 -1.1689782 0.15226237 0.5602881 -2.5760295 -1.4832596 -0.4199247 0.46215793
0.074373774 0.22547601 0.5592914 0.6103255 0.22721004 -1.0605893 0.9376374 -0.94915783
-0.15365644 -2.5636783 0.051917188 -0.007727292 0.90550876 0.22870359 -0.77653474 0.062419582
-0.53020823 -0.42321786 1.8562758 -0.53126127 0.12526037 1.228287 0.88598347 1.4831729
-0.95885164 -0.33344895 -0.7697429 0.36329457 0.6674589 0.27471012 2.144902 -0.9674815
-0.25880337 0.14648901 -0.42278618 -1.0473307 -0.3048496 -0.938932 -0.4930209 0.4391942
-0.34992415 0.15864752 0.42847222 1.2607452 0.12428102 0.26410097 -0.15482627 -0.19044255
0.09740541 -0.70332235 -1.8852282 0.2927553 -0.5991233 0.47648928 0.0799175 0.24897349
0.93588865 -0.845495 0.22664459 -0.0005988062 0.8517111 -0.50296175 0.86394733 0.588838
0.20400102 0.15378447 -0.061580192 0.31519315 -0.39060664 -1.1100708 0.27473357 -1.4285978
-0.13934752 -0.22368245 -1.6390556 -0.22174147 1.186692 -0.104384765 1.8208824 0.67329156
-0.9072097 -0.87286156 1.2523551 0.19676024 0.8274781 -0.82868564 -1.130619 -1.2497343
-0.37799934 0.3573325 0.6493815 0.19265807 -0.054631684 0.7180156 -0.12371564 1.2761679
0.030116878 -1.0914253 0.46867666 0.54332465 0.7521887 -1.2561955 0.57269 -0.6454121
1.2309078 0.094963096 1.0539544 0.79377234 -1.2166471 0.9099763 -0.3337271 -1.4244041
0.87269974 1.118165 -0.53987896 0.68210196 0.29800537 -0.14455408 -0.869783 -0.13713664
-0.2431 1.4764823 0.12083591 0.305795 -0.032456204 0.7350025 -0.43646535 -1.2062136
-0.03400483 -0.36675066 -0.69076604 0.7473305 -0.697989 1.012032 1.0286434 -1.8677595
-1.6420432 -1.6559807 -0.0040603024 -0.8946162 1.4026437 -0.06973532 0.718907 -0.08622251
-0.25452566 1.0057508 1.0405636 -0.51287097 -0.97164303 0.006294202 2.1090202 0.5589625

weight_ih_l0 f4 [40, 10]
00000000: f193 35be ab6c 6abe bb8c c4be c453 9ebb
00000010: 8f7c 9fbe 6de3 c03d 0a12 0f3d db31 453e
00000020: 0b56 9b3c 23b9 443c 5d44 eebd f07d 623d
00000030: 1eed a23e 706e 3fbd b4b5 b8be de46 6a3e
00000040: f07b 2b3c de9e 853e 347f ecbe 7169 813e
00000050: 02a2 91be e981 bb3e 66c7 7dbe cc04 a93d
00000060: a665 9a3e cec2 e03d a052 ccbe 2fd7 0ebd
00000070: d3ee c43e 22dd 8fbd d65c 4cbe a8e6 a33e
00000080: d2fa b6be 95e8 393c a63b 693e 1ffc 243c
00000090: 9773 ca3e ceb8 4a3c 2820 e6bd 8f0d 8dbe
000000a0: 6ef0 743e ebf5 4dbd c1f5 88be 7dfc 74bd
000000b0: 67af f4bd c1c9 363e 6ad2 b23e 2e8d b2bd
000000c0: c252 03be 4379 84be d000 2b3e 0533 a23d
000000d0: 465f 4f3e b92f c63e 901b af3e fb11 6ebe
000000e0: 47dc e43e 3c6c 193a 43f1 093e 1b42 903e
000000f0: 5561 133e 343d 393e 2806 c43d 7719 223e
00000100: 0e06 923e 2dfe c33e 707e b93d ae85 19be
00000110: 6b4b 6ebd da5a 4dbd 0823 a13e b6df 3ebe
00000120: b9a7 26be d98b 5abe 0a95 f3bd 22a9 9cbe
00000130: 6e6d 913e 8d53 003e 85c1 563e 9b03 d3bd
00000140: 2e8a 903c f74c 753d 9d85 0fbe 791a 083e
00000150: 9dc0 fe3d 5df1 273c fb25 8a3e e858 9fbe
00000160: 3d26 8dbe f6a0 b6be cbdd b13e 6a60 653e
00000170: 82a4 3bbe e264 6b3e 84da 503e 0201 6e3e
00000180: e2a4 c9be 9c8e 1c3e 8f05 b3bd 7c8c d23d
00000190: 6a28 e1be b946 97bd 2874 8f3e fb64 d1bd
000001a0: b9d3 6ebd 4533 0abe 7d46 c5bc ab40 883e
000001b0: 7aad 673e 65d6 ddbe 826c c5bd 615c 473e
000001c0: e52f eabd 3e57 d83e b4d4 1a3e eac0 fb3d
000001d0: 8925 b73e e1bd 983e 363e a8be 5cbf 903d
000001e0: a134 cc3e 344d e7bc e82c f53c 3275 e33d
000001f0: 59c5 793d e0d2 263d 1e7e 28be 8b16 eabe
00000200: 8970 ba3e fb18 12be 2f14 8ebe 3e3f 773e
00000210: d59a 47be cc47 ee3d de1d 163e d4fa a83e
00000220: 80ed 57bd abdf 9cbc 2f50 7fbe 1405 0fbd
00000230: caf7 88bd 93ba ad3e e214 0b3e b14c 6fbd
00000240: 99d3 8e3e b751 50bc 0af7 a73e 0e2c 873e
00000250: af84 90bd 52d5 a83d 288d bcbe 0911 24be
00000260: 97a2 f13d 58cb 953e e99f a23d 47f4 0ebe
00000270: dc3f ed3e 7e78 d23c 8038 2a3e 4bbf bc3c
00000280: dd42 e13d 58a3 c93d 354d 67bd 4fdb 86be
00000290: 1609 11be 8738 fbbd 9a67 36bc 194a 023e
000002a0: 57ed 0d3e d14d d93e d3ed 013e 174c 8d3e
000002b0: f597 883e e44d 82bc e18a 343e 705a 6ebe
000002c0: a552 5bbe 7573 89be 8b38 aa3e aa3e 373e
000002d0: a276 a73b e3ca dabd 483d cebd 2be3 3a3e
000002e0: 374b a53d 611a d9bd ec49 9c3d 87dc a53e
000002f0: eac9 bebe d5f5 1bbd 7c66 033e 32aa a7be
00000300: 15df 7c3e f94c 8a3d 6718 92bd 4c14 ffbc
00000310: 5b10 35be 8ec7 f4bc ead7 863e 53e2 e7ba
00000320: defd 6ebe 3de5 4e3c 5366 ecbe 5aea 58be
00000330: 96b4 86be f01c 2a3e 0f78 c9bd fbb9 933e
00000340: d5b7 1b3d ccf4 a93e f399 19be 11c4 dcbd
00000350: 3e98 1a3e f9bf 91bd 221e 8fbe 66ef afbe
00000360: 6d54 92be 3436 58be a5cf 4b3d f7ce 4e3e
00000370: 4ded 4bbe cbcc c53d 64e0 9dbe a6e1 f3bd
00000380: 7836 973e 296c 993e 4a10 4cbe a72e 053e
00000390: 5442 0a3e 2167 b43e a4e0 553e 79f1 a33d
000003a0: 459f 4f3e e497 a0be 9fd5 343d e71c 563e
000003b0: ffed 07be 2b80 153e 673a 113d c650 bdbd
000003c0: 17d9 873e dbf3 30bd cd17 a2bd e69e cfbe
000003d0: 511f 353e 441b 493d e1b7 90be 8dfd 88be
000003e0: 49b5 bf3d e9d8 01be 56e4 c0be 92af 1ebd
000003f0: 2de8 383e 01fe 863e e918 4dbd 8611 b43e
-0.17732216 -0.22893016 -0.3838862 -0.004831763 -0.31149718 0.09418378 0.034929313 0.192573
0.018961927 0.012007031 -0.11634133 0.055295885 0.3182153 -0.04673618 -0.36076128 0.22878596
0.010466561 0.2609777 -0.46190798 0.25275758 -0.28443915 0.3662255 -0.24783096 0.08252868
0.30155677 0.10974656 -0.39906788 -0.034873184 0.38463458 -0.070245996 -0.19957289 0.32011914
-0.35738236 0.011346956 0.2277666 0.010069876 0.39541313 0.012373162 -0.11236602 -0.27549407
0.23919842 -0.050283354 -0.26749995 -0.059811104 -0.11947518 0.178504 0.34926158 -0.08718334
-0.12824538 -0.25873765 0.16699529 0.079198875 0.20251188 0.38708284 0.34200716 -0.23249047
0.44699308 0.0005852615 0.1347094 0.28175434 0.14392598 0.18089753 0.09571487 0.15830027
0.28520244 0.38279858 0.09057319 -0.14992401 -0.058177393 -0.05013547 0.3147204 -0.18640026
-0.16274919 -0.2134241 -0.11893661 -0.30597788 0.284038 0.12531872 0.2097226 -0.10303422
0.017644014 0.059887853 -0.14015813 0.13291349 0.12439082 0.010250417 0.26982102 -0.31122518
-0.27568236 -0.35669678 0.34739527 0.2240006 -0.18324474 0.22987702 0.20395857 0.23242572
-0.39383608 0.15288776 -0.087412946 0.102807015 -0.43976146 -0.07386536 0.28018308 -0.102243386
-0.058307383 -0.1349612 -0.024081463 0.26611838 0.2262477 -0.43327633 -0.09639837 0.19468834
-0.114349164 0.4225406 0.15120202 0.12292655 0.35770825 0.29832366 -0.32859963 0.07067749
0.39883903 -0.028235056 0.02992864 0.111063376 0.06097922 0.04072845 -0.1645436 -0.45720324
0.36413983 -0.14267342 -0.27749774 0.24145219 -0.19492657 0.11634788 0.14659831 0.33003867
-0.052716732 -0.019149622 -0.24932931 -0.034916952 -0.06687887 0.33931407 0.13582185 -0.058422748
0.2789581 -0.012714795 0.32805663 0.264008 -0.070565574 0.082438126 -0.36826444 -0.16022123
0.1179859 0.292567 0.07940657 -0.13960372 0.46337783 0.02569222 0.16623116 0.023040434
0.10999081 0.098456085 -0.056470115 -0.26339194 -0.14163622 -0.12266641 -0.011133099 0.12723579
0.13860069 0.42442182 0.12688379 0.27597114 0.26678434 -0.015906282 0.17631103 -0.23276687
-0.21418245 -0.268459 0.33246264 0.17894998 0.0051105777 -0.10683229 -0.10070282 0.1825072
0.08070987 -0.106007345 0.07631287 0.32394812 -0.37263423 -0.03807624 0.12832063 -0.32747036
0.24694474 0.067529626 -0.07133561 -0.031137608 -0.1768202 -0.029880311 0.26336604 -0.0017691351
-0.2333903 0.012627897 -0.46171817 -0.21183148 -0.2630965 0.16612601 -0.098373525 0.2885283
0.038017113 0.33194578 -0.15000133 -0.10779584 0.15097138 -0.07116694 -0.27952677 -0.34362334
-0.28580037 -0.21114427 0.049758572 0.20196138 -0.19914742 0.09658202 -0.3083526 -0.119082734
0.29533744 0.29965332 -0.19928089 0.13006078 0.13501865 0.3523493 0.20886475 0.08005042
0.202756 -0.31365883 0.044149037 0.20909463 -0.13274382 0.14599673 0.035456087 -0.09243922
0.26532814 -0.04320131 -0.07914696 -0.40550917 0.17687728 0.04909827 -0.28265288 -0.26755944
0.09360749 -0.12680401 -0.37674206 -0.038741656 0.18057318 0.26365665 -0.050072584 0.3516962

weight_hh_l0 f4 [40, 10]
00000000: ddfb bbbd 27f8 333e 1a20 66be 5a00 bbbe
00000010: e382 b9bd 661c aa3e 2fde a5be 524e dbbe
00000020: 5a5d cbbd c245 d93e 9440 e63d 5ca8 f0bd
00000030: 911d 9c3e 7358 ccbc 299f 0ebe c70c fe3d
00000040: 69dc 0cbd e1d0 a6be f200 4c3d 6b91 c73e
00000050: d9c8 aa3e 42ca 88be 8539 30be d2c4 0dbd
00000060: d52e 82bd f408 093e d248 5c3e cfce cdbe
00000070: 6be8 3a3e b46c 9abd a266 e5bc 57e8 eebe
00000080: d200 af3e 0c1f 1c3e dbd1 64bd 26ba 2b3d
00000090: 1392 8cbe 7eab 303d 7298 e03d 9f03 913d
000000a0: b5c6 fc3e e7f3 f3be 9aae 293e cc00 fe3c
000000b0: ee77 39bd ea52 46b9 73a2 aa3d f22f cfbe
000000c0: 9d75 643e 0a28 023d 0ff6 a43e 78be 323d
000000d0: 3bed 16be a38c dfbe aec4 f5be ca2c 063f
000000e0: 5739 113e 27ab 3c3e 42e5 3dba c9cd 02be
000000f0: 5964 313e 3de2 1bbe c6de a93d 03a7 47be
00000100: c388 b0be 63b4 6f3e 9ab3 983e f617 c4be
00000110: df85 403e 7b84 003c 0668 f73e 212d 29be
00000120: 8ae7 a5bd 02fc e2be 0467 a53d 7c20 d23d
00000130: 359d 3dbd d183 92be 1f32 bc3d 948b ec3e
00000140: 9146 ce3e 7997 8dbe 98f0 9d3e e65a ce3d
00000150: 2b10 6c3e 5066 8e3d 8332 133e 9f7a a0be
00000160: f871 493e 4468 bf3e 8bc1 9a3e c98b a3be
00000170: 8781 813e 2c9a 073e 1baa afbe 70e2 403e
00000180: d5bd 843e 9f51 98be 3c34 af3d 2010 af3e
00000190: e2cb 07be 2b5a a2be d3f0 28bc 384a 35bd
000001a0: 6966 ed3d c64d 5d3c 38b1 55bd 1b7c e13d
000001b0: 9cef 1e3c ca67 2abe 45ac 46bd 2d1a 6ebe
000001c0: 5f47 4f3e be0a ebbe bf37 8ebd 3ce0 023f
000001d0: 98f0 6ebe f679 50be 9042 e33e c94e 433e
000001e0: fab3 3b3e cad3 c3be cf56 803e 74f8 85bd
000001f0: abc5 84be cc48 42be 08b8 f13e 5e52 32be
00000200: 37e0 48be 580f a9bd f753 81be e08d a7be
00000210: d689 2abd 517d 2bbd dd06 e83d d6e5 3b3e
00000220: 62df 96be 73ce 043e 7812 753e f492 b13d
00000230: f9df 993e e38c 25be 7bba 4d3e dc38 8bbe
00000240: c531 09bf 039c a43c 70a1 92be e3c3 b43d
00000250: b100 ad3e 19d4 f5bd e94a 07be b02f 4cbe
00000260: eed1 a53e 6d3a 2fbe aff0 c2bd 3ca0 e13e
00000270: 3430 8e3c d0a0 3ebe 8089 b93e 20ab 4bbe
00000280: 32fe 963d 4d3c a3be f9f5 5abd 2f75 8ebe
00000290: 0c17 e63c 2a93 04be a7ed a53e a7ff 98bc
000002a0: 5396 993e f7b0 cc3e 8b92 923c 6840 a9bd
000002b0: 001e 2abe 4dc6 3d3d 2064 963e a197 213e
000002c0: 1c02 64bc ea63 f1be bf09 64be b773 e13e
000002d0: 2374 cc3a 6f92 64bd 2c23 e83d 3c05 10be
000002e0: aad4 0abe 623c c8bd 0410 f1be c85f 153e
000002f0: 8966 e7bd 8050 15bd 4e31 b0bd 0a16 6dbe
00000300: d718 d83e 21d6 ad3d f18c 94bc 9535 65be
00000310: 0b80 113f 9e61 ddbd fb41 d23d a557 88bd
00000320: 4af9 a7bd ef71 54bd d3cc 643e 5eff a9be
00000330: d664 46be 7856 0f3d e6cb c0be 5071 263e
00000340: 9dcc 1abe 5d91 853e 755d 4d3e d388 c93e
00000350: e202 8dbe 5cd5 8d3d eb5b 05be 45a3 1139
00000360: 7cbc 283e d417 44be 9015 dc3c 5f41 7dbe
00000370: e8d8 ba3d f63d c93e 7dba 8d3e 4fb0 4b3e
00000380: f91c da3e 8401 d93c 222b d83c a757 55be
00000390: 74a2 3fbd ccbd 69be 2f4e 30be aaa2 bb3e
000003a0: a806 913d 4f06 c23e 2131 3d3e 37a7 f03d
000003b0: f4c5 bf3e dfd8 0cbe 144c 0abd d2a2 e43c
000003c0: 05aa 263e 548d 8a3e f86c 2f3e 8202 653d
000003d0: e311 1f3e 62f9 b0be 3a4a 11bd d4e4 74be
000003e0: 0759 dbbe 3c26 1b3e 2e0b 3ebe 9d75 8bbd
000003f0: 51f8 a2be 3817 a8be 264b 8fbd 1c7b 1f3e
-0.091788985 0.17575131 -0.22473183 -0.36523706 -0.09058168 0.3322479 -0.32396075 -0.4283319
-0.09929915 0.42436033 0.11242786 -0.11750862 0.30491307 -0.02494452 -0.13927902 0.12404781
-0.034389887 -0.32581237 0.04980559 0.38978133 0.3335636 -0.2671681 -0.17209442 -0.03461153
-0.06356589 0.13382322 0.21512154 -0.40196845 0.18252723 -0.07540265 -0.02800304 -0.46661636
0.34180313 0.15246218 -0.055864196 0.04192557 -0.27455196 0.043132298 0.10966577 0.07080769
0.4937035 -0.4764702 0.16570511 0.03100624 -0.04528039 -0.0001891364 0.08331766 -0.40466267
0.22310491 0.031776465 0.32218978 0.043638676 -0.14738934 -0.43661985 -0.48001617 0.5241209
0.1418203 0.18424664 -0.000724394 -0.12773813 0.17323436 -0.15223022 0.08294444 -0.19497304
-0.3447934 0.23408656 0.29824525 -0.3829953 0.18801068 0.007844086 0.4832155 -0.16521122
-0.08100803 -0.44332892 0.08076289 0.10260102 -0.046292502 -0.28616193 0.09189247 0.4620024
0.40288213 -0.27654627 0.3084762 0.10075931 0.23053043 0.06953108 0.14374737 -0.31343552
0.19672382 0.37384236 0.30225787 -0.31942585 0.25294134 0.13242406 -0.34309468 0.18836379
0.2592608 -0.29749772 0.08554885 0.3419199 -0.13261369 -0.31709418 -0.010311323 -0.044260234
0.11591799 0.013507312 -0.052170962 0.11009999 0.009700682 -0.16641155 -0.048504133 -0.23252173
0.2024207 -0.45906633 -0.069442265 0.51123405 -0.23333967 -0.20359024 0.4438672 0.19073023
0.18330374 -0.3824752 0.2506623 -0.06541529 -0.2593206 -0.18973082 0.47210717 -0.17414233
-0.19616781 -0.0825488 -0.25259373 -0.3272543 -0.041635357 -0.041867558 0.11329434 0.18349394
-0.29467303 0.12969379 0.23932827 0.08670607 0.3005369 -0.16167025 0.20090668 -0.27191818
-0.5359157 0.020093923 -0.28638792 0.08826425 0.3378959 -0.12003345 -0.1321217 -0.19940066
0.32386726 -0.17112131 -0.09518563 0.44067562 0.01735697 -0.18616033 0.36237717 -0.19889498
0.07372703 -0.31881943 -0.053457234 -0.2782378 0.028087161 -0.12946764 0.32407877 -0.018676592
0.299975 0.39978763 0.017892143 -0.08264238 -0.16613007 0.046331692 0.29373264 0.15780498
-0.013916519 -0.4714654 -0.22269343 0.44033596 0.0015598576 -0.055803712 0.113348335 -0.14064497
-0.13557687 -0.09777142 -0.4708253 0.14587319 -0.11298854 -0.036453724 -0.08603154 -0.23152938
0.4220645 0.084881075 -0.018133612 -0.22383721 0.56836003 -0.108096346 0.10266491 -0.06657342
-0.08201845 -0.051866468 0.22343759 -0.33202642 -0.19374403 0.034994572 -0.37655562 0.16254163
-0.15117116 0.26087466 0.20055182 0.393622 -0.27541262 0.06925461 -0.13023345 0.000138891
0.16478151 -0.19149715 0.02686575 -0.24731968 0.09123403 0.39305085 0.27681342 0.19891475
0.4260023 0.02648998 0.026387755 -0.20834218 -0.046785787 -0.22826308 -0.17217325 0.3664754
0.07081348 0.37895438 0.18475772 0.11750644 0.37455714 -0.13754605 -0.03376396 0.02790967
0.16275795 0.2706095 0.17131412 0.055910595 0.15534167 -0.34565264 -0.03547118 -0.23915416
-0.4284136 0.15151304 -0.18558952 -0.06809542 -0.31830075 -0.32830215 -0.06996755 0.15574306

bias_ih_l0 f4 [40]
00000000: 8330 d83e 4497 ad3e c05d e33e 793e d9bd
00000010: 631c 743e eab0 9a3e 5543 a93e 69e8 663d
00000020: 52f6 e83e c240 cc3d b440 68bc 316b ab3e
00000030: 220e dd3e 9845 32bd 5775 b8bd 90bf c23e
00000040: 2cdd 2abd d93d 8c3e d708 7a3e 0d0a c13e
00000050: 43c2 64be fbe2 1c3e 0599 453e ac21 c9be
00000060: b9fc 083e a4c3 7f3e f8fd 093e b859 c8bd
00000070: 6315 6e3e 8a44 f53e b94c a23d e2a9 bd3e
00000080: d7c4 2a3e b89a af3c 0e8c ea3c 8f53 bdbc
00000090: a18b 92bb 960f d43e 88e2 0a3f e113 a93d
0.42224512 0.3390447 0.44407463 -0.10607619 0.23838954 0.302131 0.33059183 0.056373987
0.45500427 0.09973289 -0.014175583 0.33480218 0.43174845 -0.0435234 -0.09006756 0.38036776
-0.041714832 0.27390936 0.24417435 0.3770298 -0.2233973 0.15320961 0.19296654 -0.39283502
0.13377656 0.24976975 0.13475788 -0.097827375 0.23250346 0.47903854 0.0792479 0.37043673
0.16676651 0.02143608 0.028631236 -0.023111133 -0.0044722115 0.4141814 0.5425191 0.08255745

bias_hh_l0 f4 [40]
00000000: 0fac b63e a906 8d3e 919b 9c3e e3d9 993e
00000010: 04be c43d 6050 983e 53c8 0a3f a782 fc3e
00000020: 133d 7c3e c901 9d3b 26d0 363d 9790 b13e
00000030: 2105 b83c 07fb cf3c d842 ba3e 6669 d63e
00000040: 5210 4f3d 0818 bf3e 5dba cf3e e943 f53e
00000050: 0845 b13e e192 9cbe 1f41 9f3d 717d 8ebe
00000060: 0b05 a5be 05e0 873e e3b2 f1bd 54a4 67be
00000070: 4ac8 27bd 8c03 533e 82e4 c43c e504 d03e
00000080: 3455 113f 6f91 bf3d be02 883e 6c22 8ebd
00000090: c3c4 413c b01a 563d d206 083f c502 503e
0.35678145 0.27544144 0.30587438 0.30049047 0.09606555 0.2974882 0.5421192 0.4931843
0.24632673 0.0047914726 0.0446321 0.34680626 0.022463383 0.025388254 0.36379123 0.41877288
0.050552674 0.37323022 0.4057187 0.47903374 0.3462298 -0.3058081 0.07776093 -0.2783008
-0.3223041 0.265381 -0.11801698 -0.2262128 -0.040962495 0.20606822 0.024034742 0.40628734
0.56770635 0.09353911 0.26564592 -0.06940159 0.011826697 0.052271545 0.53135407 0.20313556

weight_ih_l0_reverse f4 [40, 10]
00000000: fe6b aabe 6c67 14bc eea7 f4be 23af f33c
00000010: 7842 58bd cb9b c93e c377 c4bc 722a 3c3e
00000020: 8ee5 d3be 8d2e 373d 2619 773e f6a3 60be
00000030: 4a42 8ebe d284 7dbd 250b 6a3e 9f24 d8bd
00000040: be95 2c3e 2771 403d 84a9 efbe 7a9d 0cbc
00000050: 3b24 de3e ecd9 b53e 1638 06be aa84 103e
00000060: 7f51 e93d a354 cabe 900e 4abe b59b abbe
00000070: d166 543e 8d8e 5ebe aa9f 353b 3862 83bc
00000080: 59bd 2bbe fff9 b8bd 4275 b93e 74d0 38be
00000090: 4a9b 8fbd da10 d4bc 8376 08bc 968d a43e
000000a0: 6912 653e 153c a53d 0f19 84bc 1fe2 52bd
000000b0: ffd5 f8bd 447d 4ebe c7cb 86bd 64f4 70be
000000c0: 4b6f b1be 4379 84bc 2c31 663b 9fbf 45be
000000d0: 12c7 2bbe ddfb 95be ccae 2cbe 86ef 1ebe
000000e0: 3e04 34be 7a85 cabc 6cd9 11bd 2347 e33d
000000f0: 4fb6 d33d 1d85 ff3d 622d e43d 5d4b bb3e
00000100: 14f6 1fbe 4c2e eb3e 9169 1b3e 2814 b63e
00000110: 5993 443d 2eb5 63be 096b 93be bc66 43bc
00000120: 6861 72bc 0207 e6bd 6770 0a3e 860b 8b3e
00000130: 0dd5 b43e 9a28 b23d 27da 20be ea9d 31be
00000140: 07f7 64be 84e3 b43d 4bde c2be defa bcbc
00000150: c1a4 363c c5e6 943d 1146 b6be 9ad4 47be
00000160: 7ee4 cb3d 0523 b13b 8eb5 54be 84b9 2c3e
00000170: 60ef efbd 4bcc 203e 196e 953d a34f 78be
00000180: 877c 003e 1b88 b5bd c1c8 84be f38e 253e
00000190: 1849 6e3e f16f 253e ddc4 91bd fb5e 11bd
000001a0: b7d5 4c3e 5a92 093e b0ce 9fbe 6645 5c3e
000001b0: 1ee8 4a3e a002 6b3e 7eeb 81be a318 913c
000001c0: f385 00be b48b ac3d c612 72be c3a1 0cbe
000001d0: 95cf 6cbd 4c25 963e 3064 0fbe b0dc ce3d
000001e0: 49e2 453e d4a3 903e 3915 62be 7d53 a53b
000001f0: e929 013e 5a77 09bd 0a39 20be 2bb9 793e
00000200: f174 17bd 0d43 bcba 934b 423e c508 19bd
00000210: 4b80 133d b27c 94bd 14b5 093e 751b 053e
00000220: 065e a2be 517c 693e c765 ac3e 6012 cf3d
00000230: 7928 693d 132e a73d ebfe 02be c29f 8f3e
00000240: ac2b b6be 1d08 83be a17e a7bd 2019 54be
00000250: df0c 903d 025b b13c a8de b43d 7e32 c43d
00000260: 336d 50be ab16 893e 882c d13d 070c 25be
00000270: 764f 50be 3d41 8bbc 772b 803d eb3a 183e
00000280: 291d 75be c059 8cbe 57ca c5be a7f2 8bbe
00000290: 161b a33d 500e b4bc 39ed b7be 16e6 873d
000002a0: 1442 293d 6117 683d e6fe 653e 3c7f b93d
000002b0: 884b 22bd 9198 da3d 1ec8 ccbd a4f5 52be
000002c0: 64c6 33be 12da 8dbd 195c d7be 3718 27be
000002d0: 43f7 43bc 6f07 9bbc 4009 9c3d 6cb3 473d
000002e0: cbf2 e6bc 211a cebe 58c5 b2be 8dcc 8cbe
000002f0: 6682 1b3e 5ef5 983d 0edf 803e bba8 893d
00000300: ffa1 5f3d 4506 163e d2f7 b2be e26e 2a3e
00000310: cefe aebd d8d3 a53d 8cdd 593e 9e66 2a3d
00000320: cd0a 59be 97f9 a2bd d119 05be 4d38 8bbe
00000330: 1035 a3be 0d99 4abe 9858 b53e 9092 973e
00000340: 5319 a2be 9c9b a8bd 1271 87be e881 27be
00000350: 4ad9 a83d 8162 69be aa2d 183e 4150 a9bc
00000360: 4db6 d6be db82 c73d 3a7f 7b3e 97ab ef3d
00000370: 1da4 a2be b700 c3bd c854 803e 3651 dbbd
00000380: b488 13bd 72a8 073e ad89 b13e 54e9 a83e
00000390: 34c5 4d3e 9131 883e 25db e7bd 8efa d6bc
000003a0: 5923 8b3e 3eb8 7fbe e241 93be e26c 10be
000003b0: 029c 62be 0b37 703d 5b97 e9bd e056 bfbd
000003c0: 093d 0ebd c306 b3be 5ff9 e8bd a6cd 8f3e
000003d0: f5b1 d5bd e104 893d 28a7 80be b27a 1bbe
000003e0: 8381 a93e 7db8 3bbe 4222 c3bd 7e5a 4c3e
000003f0: d4f5 9fbd 9661 093e 3202 02be e1dd 253e
-0.33285517 -0.009057861 -0.4778437 0.029746598 -0.052797765 0.39376673 -0.023982888 0.18375567
-0.41386074 0.04472213 0.24130687 -0.21937546 -0.2778495 -0.061894245 0.22855814 -0.1055386
0.16853997 0.04698291 -0.46809018 -0.008582467 0.43387017 0.35517824 -0.13107333 0.14113107
0.11392497 -0.39517698 -0.19732118 -0.33517233 0.20742346 -0.21734066 0.0027713575 -0.016038045
-0.16771449 -0.09032058 0.36222273 -0.18048269 -0.07012041 -0.025886942 -0.008329037 0.32139271
0.22370304 0.080681 -0.01612523 -0.051485177 -0.121501915 -0.20164973 -0.06581836 -0.23530728
-0.34655222 -0.016171103 0.0035124524 -0.19311379 -0.16775158 -0.2929372 -0.16863555 -0.15521058
-0.17579743 -0.02472185 -0.03560774 0.110975526 0.10337507 0.12476561 0.111414686 0.36580935
-0.15621215 0.4593376 0.15176989 0.35562253 0.047992084 -0.22237083 -0.287926 -0.011926349
-0.014793731 -0.112318054 0.1351944 0.2715723 0.35318795 0.086991504 -0.15708219 -0.17345396
-0.22359858 0.08832458 -0.3806022 -0.023068842 0.011147679 0.07270578 -0.3560033 -0.19514695
0.09955691 0.005405786 -0.20772383 0.16867644 -0.11715579 0.15702932 0.0729639 -0.24249129
0.12547503 -0.08863851 -0.25934413 0.16167812 0.2327007 0.16155984 -0.07117627 -0.03549097
0.200034 0.13434735 -0.31212378 0.21510848 0.19815108 0.2295022 -0.2537498 0.017711943
-0.12551098 0.08425084 -0.23639974 -0.13733582 -0.057815153 0.2932533 -0.14003062 0.101006866
0.19324602 0.2824999 -0.22078408 0.005045353 0.12613644 -0.03356109 -0.15646759 0.24387042
-0.03697676 -0.0014363244 0.18974142 -0.03736188 0.03601102 -0.07250346 0.13447982 0.12998755
-0.3171236 0.22801329 0.336714 0.10110927 0.056923363 0.08163085 -0.12792556 0.28051573
-0.35580194 -0.25592127 -0.081784494 -0.2071271 0.07033705 0.021649841 0.08831531 0.09579943
-0.20354156 0.26775107 0.10213572 -0.1611787 -0.20342812 -0.016998881 0.0625829 0.14866225
-0.23936905 -0.27412224 -0.38630936 -0.27333567 0.079641506 -0.021979481 -0.35923174 0.06635682
0.041322783 0.05666292 0.22460517 0.09057471 -0.039622813 0.10673631 -0.09999107 -0.20601517
-0.17556149 -0.06926359 -0.42062452 -0.16317831 -0.011960807 -0.018924443 0.07618952 0.048755094
-0.028191945 -0.4025431 -0.34916186 -0.2749981 0.15186462 0.07468675 0.25170177 0.06721636
0.05459785 0.14650829 -0.34954697 0.16643861 -0.08544694 0.080970466 0.2127592 0.04160177
-0.21195526 -0.07957762 -0.1299813 -0.27191392 -0.3187642 -0.19784947 0.35419154 0.29604006
-0.31659946 -0.08232805 -0.26453453 -0.16358149 0.082445696 -0.22791483 0.1486117 -0.02066815
-0.4193596 0.097417556 0.24560252 0.1170265 -0.31765833 -0.09521621 0.25064683 -0.10708849
-0.036019042 0.1324785 0.3467535 0.32990515 0.20094758 0.26600316 -0.113210954 -0.02624252
0.27175406 -0.24972627 -0.28761202 -0.14104035 -0.22129825 0.058646243 -0.11405822 -0.09342742
-0.034726176 -0.34966096 -0.11375689 0.28086585 -0.10434333 0.06690384 -0.2512753 -0.15183523
0.33106622 -0.18332095 -0.095280185 0.19956395 -0.0781056 0.13416132 -0.1269615 0.16197921

weight_hh_l0_reverse f4 [40, 10]
00000000: ea26 a8be d638 66be 5c29 99be f4d7 763d
00000010: 69c6 5fbc cdf6 7d3e 5823 25be 31dd 583e
00000020: 1e93 12be c6cc b9bd 543f 053e ad51 bdbe
00000030: a2a6 a0bc c3d9 ccbe 1150 2ebe ffde dcbd
00000040: 0d53 29be e07e c83e d722 263e f240 e33d
00000050: 741e adbe 86f7 90be f214 60bc 7ad3 183e
00000060: 2182 0bbe 6c59 683e bc89 1dbd 5e1c 8a3e
00000070: 2d42 9b3e be41 8fbe 4eb3 a43e c8cb 153e
00000080: e7af 5fbe a7b1 a9be e9b4 cfbe 819a fbbd
00000090: 1262 01be fbf8 06bd 48d3 bb3e 7a89 cfbd
000000a0: 50fb 64be 98ca edbe 1ffc 80bd 2972 b7be
000000b0: ec26 493b ce65 8ebd c147 0cbe 5346 8d3e
000000c0: 98a9 a4bd 0de5 9f3e bd8e 453e ab63 eabe
000000d0: 9a03 033d 64dd f7be 7fbb a43d a380 033f
000000e0: 60dc b93e 9278 f83e 7fdd 0abe d961 56bc
000000f0: be95 38be 312d d2be ff78 aabd 5ef6 973d
00000100: 167c 2ebe 30d7 b73e 3e8b cabd b2d7 c63e
00000110: 8f5e 453e 8075 7f3e 7273 413e 229d c5be
00000120: cb9a babe 5691 323e 8d49 77be 4345 593e
00000130: 316d 05be a19f 213e facb 49bd cf8b b3bd
00000140: 8d97 a63e 784f 163e e2aa b5be 2c95 303d
00000150: 2c4e 003d 8776 0a3e ef10 dabd df98 833d
00000160: 9a3e 9eba e8c5 bf3e db09 bc3e ad4d a0be
00000170: b428 bcbd 63c0 f2bd 2518 32bd 380b f43e
00000180: ddf5 313e a1cd 993e 0aa5 833d 9004 c33e
00000190: 2e05 ed3e 52be f9bd b5ca f03d fc03 b7be
000001a0: 888e b4be 924a 173e ee95 633d f317 eb3e
000001b0: 93ba ee3d a7b3 b4bc 6f50 a83c c6af 19bd
000001c0: d210 7c3e fdcb 25be 6454 aabe 968d c73e
000001d0: 2bff 8c3e 04b4 713e b50b b7bd 0b09 c53e
000001e0: afd8 bdbd 2ca8 cc3d 0cc7 a0be c4e6 b0be
000001f0: 9539 86be 2a9b b03e 8c60 a63e f4c5 65be
00000200: 8f20 bbbd f7ff 99bd e892 38bd b9f6 9bbd
00000210: 1aab 70be 045d b83c 29a9 e7be 6c01 fa3e
00000220: 05ad 67be 1b87 823d cffa b93e 2eba a03e
00000230: 79b5 c33e 62d1 2abe 92bf 7f3e be3c ddbd
00000240: cbaf 61be b610 213e 01e3 84bd 7c82 223e
00000250: bc48 71bd 89aa a73e ece5 b23e 1de3 62be
00000260: 4e2d cf3c e637 16bc 0c03 aebe 27d9 06be
00000270: 0648 8f3e 17a3 9fbd 7acf bf3e fc2e 8d3e
00000280: 892e ca3e 68cf c0be 1d34 a6be e24d c6be
00000290: d520 9dbe 5316 023f 70fd 653e 637f eb3d
000002a0: 11ed 01bd f71e 083f 8abc 893e ddee 963d
000002b0: bd5e bdbe 384a dbbd 8edc e5bd ab46 d33e
000002c0: ffba 883d c747 ad3d 9151 363e d433 f83c
000002d0: da74 c83d bdf9 febd 54c4 93be ec46 003d
000002e0: 31ff b5be 3e0f 683e 91a4 ecbd 7360 263c
000002f0: ab5f 78be b557 d23d 5935 893e 18b2 bf3d
00000300: 2b43 24be fb64 e23c 8306 cabe 2739 c13d
00000310: 5015 e7bb 070e 973e a3eb e23e 1e35 b53d
00000320: d36e 843e d6cf d53c 5d59 b03c b4d1 babd
00000330: 4851 0f3e 6e89 08be cc09 753e 986f c9bd
00000340: bdcc 88be 804d 1dbe ffd7 3b3e 3d1f f13d
00000350: d155 95bd 1f4f 93be e9a5 63be bf66 cebd
00000360: 1461 8ebe dec4 93be e3c8 f3bc 46de e9bd
00000370: 1f40 16bd c294 d03e 6807 1b3d f963 8d3e
00000380: a38f 8f3e 6db1 18be 2590 5ebe 1927 72bc
00000390: 338e 9dbc 6f10 57be 9dfe a1be 75d7 1f3e
000003a0: f4ca 7dbd c732 e03e 8381 903e 1528 a3be
000003b0: c472 183e 022f 3dbe e076 393e 0cb7 073e
000003c0: 6834 c2be 705d 2f3e a745 343e c217 88bd
000003d0: 9cc6 ab3e 1089 adbe 0a88 923e 31f9 46be
000003e0: a817 233e d773 b53d e403 f13e 8dff bcbd
000003f0: 9d77 bd3e ef92 8fbd dab2 e2be ebbe cebb
-0.3284219 -0.22482619 -0.29914367 0.060264543 -0.0136581445 0.24801178 -0.16126764 0.21178128
-0.14313933 -0.090722606 0.13012439 -0.36976376 -0.019610707 -0.4000989 -0.1702273 -0.10784721
-0.16535588 0.39159298 0.16224228 0.11096372 -0.33812296 -0.28313845 -0.013676869 0.14924422
-0.13623859 0.22690362 -0.03846143 0.26974767 0.30323926 -0.27979845 0.3216805 0.14628518
-0.21844445 -0.3314335 -0.4056771 -0.12285329 -0.12635067 -0.03295229 0.36684632 -0.101336434
-0.22361493 -0.4644363 -0.06298088 -0.35829285 0.0030693365 -0.069530115 -0.13699247 0.27592716
-0.0804016 0.3122944 0.19292732 -0.45779166 0.031985857 -0.48411095 0.080435745 0.5136816
0.36300945 0.48529488 -0.13561057 -0.013084852 -0.18025872 -0.41050103 -0.083238594 0.07420038
-0.17039523 0.35906363 -0.098898396 0.38836437 0.19274352 0.24947166 0.18891695 -0.38596445
-0.36446223 0.17438254 -0.24149151 0.21217827 -0.13029934 0.1578355 -0.049266793 -0.08766901
0.325375 0.14678752 -0.35481936 0.04311101 0.03132455 0.13521777 -0.10647761 0.06425642
-0.00120731 0.37455678 0.3672627 -0.31309262 -0.09187451 -0.11853101 -0.043480057 0.4766481
0.17378946 0.30039695 0.06427963 0.38089418 0.46293014 -0.12194504 0.11757413 -0.35745227
-0.35264993 0.1477454 0.055562906 0.4591671 0.1165668 -0.022058321 0.020546166 -0.037521146
0.24615791 -0.16191097 -0.3326751 0.3897521 0.27538428 0.23603827 -0.0893778 0.38483462
-0.09269845 0.09993014 -0.3140186 -0.3455106 -0.26215807 0.3449338 0.32495534 -0.22438794
-0.091370694 -0.075195245 -0.045061976 -0.07615418 -0.2350277 0.02250529 -0.45246246 0.4882921
-0.22624595 0.063734256 0.36324164 0.31392044 0.3822439 -0.16681436 0.24975422 -0.10802601
-0.22039716 0.15729031 -0.0648861 0.15870088 -0.058907256 0.32747295 0.3494104 -0.2215695
0.025290158 -0.009168601 -0.339867 -0.13168775 0.27984637 -0.07794779 0.3746298 0.2757491
0.39488629 -0.37658238 -0.32461634 -0.38731295 -0.3068911 0.50815314 0.2245996 0.114989065
-0.031720225 0.5317225 0.26901656 0.07369778 -0.36986342 -0.107075155 -0.11223708 0.41264853
0.06676292 0.08460956 0.17804553 0.030298151 0.09787913 -0.124499775 -0.28860724 0.031317636
-0.35546258 0.22662064 -0.11554826 0.010154831 -0.24255244 0.10270635 0.26798514 0.093601406
-0.16041248 0.027636042 -0.39458093 0.09434729 -0.007052101 0.2950289 0.44320402 0.08848022
0.25865802 0.02610008 0.021526987 -0.09122029 0.1399585 -0.13333675 0.23929518 -0.09835738
-0.26718703 -0.15361595 0.18344115 0.11773536 -0.07291759 -0.28771302 -0.22231258 -0.10078191
-0.2780844 -0.28861135 -0.029758876 -0.114193484 -0.036682244 0.40738493 0.03784886 0.27615336
0.28039274 -0.14911433 -0.21734674 -0.014779829 -0.019232845 -0.21002363 -0.31639567 0.15609534
-0.06196113 0.4378874 0.2822381 -0.31866518 0.1488753 -0.18474963 0.18111753 0.1325342
-0.37930608 0.17125487 0.17604695 -0.066451564 0.33549964 -0.33893633 0.28619415 -0.19430996
0.15926993 0.08859985 0.4707328 -0.0922843 0.3700532 -0.07010447 -0.44277078 -0.0063093803

bias_ih_l0_reverse f4 [40]
00000000: 6ba0 193b 2d79 33bc be8b 0b3e 725f 423e
00000010: 8cf4 0f3f af0e 373e 4466 103e c3fd ca3d
00000020: 2e6f 8a3d 8525 823c 4883 813e 1ad9 1f3e
00000030: f5a4 6a3d 52da 173e e7c5 ac3e a596 b13e
00000040: d172 d33e fa42 4f3d 45ca 433e 894e 8b3e
00000050: 76f7 23bd 42bf b4bd 705e 84bd 5d3e abbe
00000060: 0946 403c 3590 f8bc c703 f5bd ccfb 513e
00000070: 136b 203e 1502 5cbc 596d b3bc 49b8 23be
00000080: 0445 273d dc00 c4bd 33d9 9f3e 46e3 4f3d
00000090: 46bb 383e 011e 54bd 8f9e 9b3e f6b1 993e
0.0023441564 -0.0109541835 0.13627526 0.18981722 0.56232524 0.17876695 0.14101511 0.099116825
0.06759487 0.015887031 0.25295472 0.15610161 0.05728622 0.14829376 0.33744738 0.34685245
0.41298535 0.050600983 0.19120128 0.27208355 -0.04003092 -0.08825542 -0.06463325 -0.33446017
0.011735448 -0.0303422 -0.11963611 0.20506209 0.15665846 -0.013428231 -0.021902727 -0.15988268
0.040837303 -0.095704764 0.31220397 0.050753854 0.18040189 -0.051786426 0.30394408 0.30018586

bias_hh_l0_reverse f4 [40]
00000000: 026e 853e e541 d73e a4a2 7d3e 65a7 753e
00000010: 04ae 003e ad71 123f b366 813e d338 813e
00000020: 9a90 12bd 2aa9 85bc 0410 743e 9515 583e
00000030: 3158 6fbc bd2d 6b3e cbdf e03e 7174 eb3e
00000040: a969 7d3e 86fd 163d 1828 3b3e befd 403e
00000050: 4bbf 6a3e 5b13 99be 0a01 663e 06cb 48bd
00000060: f0ce 81be d502 7f3e 3f9d 823e baeb a03e
00000070: 53b9 593e 4a2b 3fbd b29d ad3d 1df4 b93e
00000080: 2e6a d03d 148a 5a3e 386f e93d 4c31 1e3e
00000090: fe22 d23e 77bf 8d3e 35e6 923d 62ca b53e
0.26060492 0.4204246 0.24769074 0.23989637 0.12566382 0.57204705 0.25273666 0.25238666
-0.035782434 -0.016316015 0.23834234 0.21101983 -0.014608429 0.22966667 0.4392074 0.45987275
0.24747337 0.036862873 0.18277013 0.18846795 0.22924535 -0.2989758 0.22461334 -0.049021743
-0.25353193 0.24903424 0.25510594 0.31429845 0.21262102 -0.046672143 0.084773436 0.36319056
0.10176502 0.21341735 0.113981664 0.15448493 0.41042322 0.2768514 0.07172815 0.35505968

weight f4 [10, 20]
00000000: ca33 1abe 8975 e8be 45f4 c1be 304e afbd
00000010: 12e9 dfbe f455 6d3e e277 7ebe 9380 633e
00000020: db47 c53e a024 853d c479 1239 7164 acbe
00000030: c1c5 c23d 3ff1 ff3d eee1 bfbe ec8c 5a3e
00000040: d844 eb3a 6175 3c3e 33a2 253d bc7e db3d
00000050: f923 c93e 1603 04be c653 f53d ba48 c7bd
00000060: 293b a9be bd6d 443e af29 0bbe 37a0 d23d
00000070: 4e60 653d 466b 38be 9f01 543e 4568 2bbe
00000080: 862b 99be 9df9 113e 676c 82bd 3e03 ad3e
00000090: 4a1d 333e 70c1 133e 32a2 703e 2ae2 873e
000000a0: 8e1e e8be 7050 433e 4f94 99be 7113 2abe
000000b0: 9fee 7d3e 4be0 04be 1c59 053e 7921 90be
000000c0: 7b5e 163e e4e5 2bbd f939 e9bd 7467 4e3e
000000d0: ac32 92be d642 77be 4ae9 693d 575f d63d
000000e0: 3229 64be 8271 793e f821 f4bd 062e 433d
000000f0: 0cf6 c83c 2e6f 6cbe d6f3 863d d867 e4bd
00000100: bac4 b1be 736c e73d cea1 b03d cad9 c33d
00000110: 1a22 563e 951c 143d 1acb 433e 02c1 943b
00000120: 68e8 67bb 2d8a 29be 85c6 aabd d072 993e
00000130: 014c c6be 470f 583e 0907 513e 7d4f a5be
00000140: 453d 34be 7c96 bbbe 8dc1 e3be b721 d23c
00000150: 092c 9ebe 85af 813e 8d1b bc3c 1418 6bbe
00000160: 2720 2f3e 5b84 24be 57fe e7bc 54f9 073d
00000170: b05e 26be f701 00bd 7c3c 1e3d 15b9 9e3e
00000180: cb23 bebd fff7 2bbd 91ed 6bbd 9218 2f3e
00000190: 665e 023e 443b 8abd 5777 bd3e b85a f13b
000001a0: d401 883e cbb2 60bd 3363 eb3e ef6f f2be
000001b0: 14cd c73c 3516 cb3e cc53 b6be ca44 debc
000001c0: f459 6cbe 3d1b 61be c1c0 08bd 226f 3dbe
000001d0: 919c 553d 2b9e dc3d cae6 a6bc 1c2e 803d
000001e0: e66d e6bd 6b2a 8d3b 2259 1bbe cb2e 22be
000001f0: a9b2 98bd 0e32 613e 8244 1a3e 54e5 5cbe
00000200: d771 673e fc28 68bd 38c9 13be 1e7f 593e
00000210: 0ca8 0ebe 4170 703e 6b4b 1b3e aa97 a0bd
00000220: bc29 9b3e d752 b03b d8c7 a23e fd1f 0f3e
00000230: cb5c 06bd c92e 89be 8ed8 96be 0764 42be
00000240: ea4e dbbe 2ef6 513e accf c3be 0ddb d73e
00000250: 9d95 ac3e d22f 553d cd1e 5b3e 3bca 45be
00000260: 263e 54be e786 7dbe 1fb3 c2be b081 ac3e
00000270: 92f9 57be b14d 543c 8d6d 113e 2a48 80be
00000280: b010 d53e 4682 c5be 9635 fabd ded5 3ebe
00000290: 09b4 84be 9b8d c13e 234c 5fbe eb1d 993e
000002a0: cd28 5c3e e28f 3cbe 3f42 8c3e 03dd acbe
000002b0: a7fc 62be b1ba 8c3c 0943 04be 6414 693e
000002c0: 4602 b23e b808 1d3e 7af1 a7bd 879d a83e
000002d0: 5a01 d8bd dfe0 1a3c 7297 e93e 2445 e73d
000002e0: c825 803e 0c21 77be 18c7 c53e 255f c5be
000002f0: 6d04 5cbe cc52 c33e 067d 573e a177 303e
00000300: 15e1 9f3d 3b11 ffbd 8faf 64be c557 903e
00000310: f637 153e 7944 803d 9490 5d3d faa4 f33e
-0.15058818 -0.45402172 -0.37881675 -0.08559835 -0.43732506 0.2317732 -0.24850419 0.22217016
0.38531384 0.06501126 0.00013969006 -0.3367038 0.09510375 0.12497186 -0.37477058 0.2134282
0.0017949594 0.18404151 0.04043789 0.10717532 0.39285257 -0.12891802 0.11978869 -0.09730668
-0.33052948 0.19182487 -0.1359012 0.10284465 0.056000046 -0.18009672 0.20703743 -0.16738994
-0.29916018 0.14255376 -0.06368332 0.33791536 0.17491642 0.1442926 0.23499373 0.26539737
-0.4533581 0.19073653 -0.29995963 -0.16608979 0.24798058 -0.12976186 0.13022274 -0.28150538
0.14684479 -0.041967288 -0.113880105 0.20156652 -0.28554285 -0.2414659 0.057107247 0.104674034
-0.2228134 0.24359706 -0.119205415 0.047651313 0.024531387 -0.23089287 0.06589477 -0.11152619
-0.34720403 0.11299982 0.08624612 0.09563024 0.20911446 0.03616007 0.19120446 0.00453961
-0.0035386328 -0.16556616 -0.08338646 0.29970407 -0.3872986 0.21099578 0.2041284 -0.32287207
-0.17601497 -0.36638248 -0.44483605 0.025650842 -0.3089297 0.25329223 0.022962356 -0.22958404
0.17102109 -0.16066115 -0.02831952 0.033196762 -0.16247058 -0.031251874 0.0386319 0.3100058
-0.09284171 -0.041984554 -0.057599608 0.17099217 0.12731323 -0.06749585 0.37005112 0.007365551
0.26563895 -0.05485801 0.4597412 -0.47351024 0.024389781 0.3966538 -0.35610807 -0.02713241
-0.2308119 -0.21983047 -0.03338695 -0.18499425 0.052151266 0.10772356 -0.02037372 0.06258795
-0.1125143 0.004308035 -0.1517072 -0.15838163 -0.07455952 0.2199175 0.15065196 -0.21571857
0.2260202 -0.05667971 -0.14432228 0.21239898 -0.13931292 0.23480321 0.15165488 -0.078414276
0.30305278 0.005380969 0.31793094 0.13977046 -0.032803338 -0.26793507 -0.29462093 -0.1898347
-0.42833644 0.20504066 -0.3824438 0.4215931 0.33707896 0.052047558 0.21398468 -0.19315426
-0.20726833 -0.24758492 -0.38027284 0.33692694 -0.21091297 0.012957976 0.14201947 -0.25055057
0.41614294 -0.38575953 -0.12217252 -0.18636271 -0.25918606 0.3780335 -0.21806388 0.29905638
0.2149994 -0.18414262 0.27394292 -0.3376237 -0.22166692 0.017178865 -0.12916197 0.22761685
0.3476736 0.15335357 -0.08200355 0.32932684 -0.10547133 0.0094530275 0.45623356 0.112924844
0.25028825 -0.241337 0.3862846 -0.38549152 -0.21486063 0.38149107 0.21043786 0.17233135
0.07806603 -0.12454458 -0.22332595 0.28191963 0.14572129 0.0626306 0.05409296 0.47586805

bias f4 [10]
00000000: 92d8 903c fd15 b73c 5ed6 f13d bd28 ecbd
00000010: 7f95 08bd 08c6 683e 128b 4fbe ba16 fc3d
00000020: 163c de3d 1b9a 833e
0.017681394 0.022349352 0.118084654 -0.11531208 -0.033345696 0.22731793 -0.20267895 0.12309022
0.10851304 0.2570351

weight f4 [5, 10]
00000000: 1435 adbe 4b72 8abd fe58 84be 7b61 febe
00000010: 9268 8cbe f358 8c3e 95e0 3e3e 7067 10bf
00000020: da95 b1bd b5fe e33e 990d 89be 6d6f 81be
00000030: 53d2 0b3e 9b34 933e 9c33 13bf 6531 4b3e
00000040: 2cc7 bdbe 21e7 71be 98e9 f5be ce36 aebe
00000050: 12fc 7a3e 537a 81be a66d 493c 56c4 303e
00000060: 5a96 893e 1f4a 56be 7d12 f3be 2719 683e
00000070: 4d44 babe 9ee5 eabe d1a2 26be 24dc a1be
00000080: 0b19 053f 545a 39bc 51b5 863e 2a54 673e
00000090: 0462 a83e 794c cebe 88d1 f4be 5ab6 043f
000000a0: 880c f03e 61c7 c63e 8c51 a3be 77e1 503e
000000b0: cbc3 d13e 02eb 0cbf a6ff 44be a0f7 bd3e
000000c0: 617a f73e de09 dfbe
-0.33829558 -0.06760081 -0.25849146 -0.49683747 -0.2742353 0.27411613 0.18640359 -0.56407833
-0.0867116 0.44530264 -0.26768187 -0.25280324 0.13654451 0.28751072 -0.57500625 0.19843061
-0.3706602 -0.23623325 -0.4802978 -0.34026188 0.2451022 -0.25288638 0.012294209 0.17262396
0.26872522 -0.20926712 -0.47475043 0.22665845 -0.36380234 -0.4587831 -0.16273047 -0.31613266
0.5199134 -0.01131304 0.26310208 0.225907 0.3288728 -0.4029272 -0.4781611 0.51840746
0.4688456 0.3882399 -0.31898153 0.20398508 0.4096969 -0.55046093 -0.19238147 0.37102985
0.48335555 -0.43562216

bias f4 [5]
00000000: 3b54 a13e f569 5bbe b795 c83d 5637 84bd
00000010: 209a 533e
0.31509575 -0.21427138 0.09794181 -0.06455867 0.20664263
