proyecto_final/models/model_gru_ex_1.pt (torch, 379511 bytes, 17 tensors)

weight f4 [4221, 20]
0	0x00000000	0.0
1	0x00000000	0.0
2	0x00000000	0.0
3	0x00000000	0.0
4	0x00000000	0.0
5	0x00000000	0.0
6	0x00000000	0.0
7	0x00000000	0.0
8	0x00000000	0.0
9	0x00000000	0.0
10	0x00000000	0.0
11	0x00000000	0.0
12	0x00000000	0.0
13	0x00000000	0.0
14	0x00000000	0.0
15	0x00000000	0.0
16	0x00000000	0.0
17	0x00000000	0.0
18	0x00000000	0.0
19	0x00000000	0.0
20	0x3f0e82a2	0.5566808
21	0xbfc6c22a	-1.5528004
22	0xbea5d518	-0.3238914
23	0x3ff44a03	1.9085087
24	0x3f50c05c	0.8154352
25	0xbf0541b8	-0.52053404
26	0xbe61c32d	-0.2204711
27	0x3e6e217e	0.23254964
28	0x3fb1acb2	1.3880827
29	0x3fd14365	1.6348692
30	0x3f7a4f9f	0.9777774
31	0xbf6487fd	-0.8927
32	0xbf1d6220	-0.6147785
33	0xbc8828e6	-0.016621064
34	0xbef3bd3b	-0.4760531
35	0x3e86ca87	0.2632639
36	0x3edc3e57	0.43016312
37	0x3de9fa24	0.11424664
38	0x3f3615c8	0.71126986
39	0x3efed6b5	0.49773183
40	0xbe28d7f0	-0.16488624
41	0x3f330019	0.69922024
42	0xbea52973	-0.32258186
43	0x3e1bbef9	0.15209569
44	0x3f0227f8	0.5084224
45	0x4013b0f7	2.307676
46	0xbfc58b1a	-1.5433075
47	0xbfc49fb8	-1.5361242
48	0xbf30a780	-0.69005585
49	0x3f7a5b44	0.9779551
50	0x3f8954ca	1.0729
51	0x3e034209	0.12818159
52	0xbe8185c9	-0.25297382
53	0xbee92f6b	-0.4554399
54	0x3f0d97c1	0.55309683
55	0xbeb88ad8	-0.3604343
56	0xbeea773d	-0.45794097
57	0x3f2d957a	0.6780621
58	0x3fcc2e3d	1.5951611
59	0x405e29bc	3.4712973
60	0xbfc1f83c	-1.515388
61	0xbf9a5a70	-1.2058849
62	0x3ff08f28	1.8793688
63	0xbf17a90d	-0.59242326
64	0xbf23b476	-0.63947237
65	0x3f5d3dbe	0.86422336
66	0x3f86c38e	1.0528429
67	0x3fa52faa	1.2905171
68	0xbfb37d9c	-1.4022708
69	0x4024877c	2.5707693
70	0xbeefde15	-0.46849123
71	0x3eb9efc9	0.36315754
72	0xbfd3bbff	-1.6541747
73	0xbef68d18	-0.4815452
74	0xbf0342e2	-0.5127393
75	0xbed7935f	-0.42104623
76	0xbf83a27b	-1.028396
77	0x3f934bee	1.1507547
78	0xbdddba07	-0.108264975
79	0x3f71090f	0.9415445
80	0xbd82addf	-0.063808195
81	0x3f482e52	0.7819568
82	0xbf619dd2	-0.8813144
83	0xbdc005af	-0.09376084
84	0x3f6f20eb	0.93409604
85	0xbef0e37d	-0.4704856
86	0x3f8fa39d	1.1221806
87	0x3ead5c96	0.338597
88	0xbe706c7b	-0.23478882
89	0x400f93e7	2.2434022
90	0xbffef04a	-1.991708
91	0x3cdef306	0.027215492
92	0xbf89d18b	-1.0767072
93	0xbf6e8fa7	-0.93187946
94	0xbc2f65e5	-0.010705446
95	0x3f542f46	0.82884634
96	0x3fd93680	1.6969757
97	0xbfa2d7d4	-1.2722116
98	0x3e9b1611	0.30290273
99	0x3ee70bab	0.4512609
100	0xc028f761	-2.6400988
101	0xbfddca33	-1.7327331
102	0xbe5ab4cc	-0.21358031
103	0x3eca62f0	0.39528608
104	0x3e62863b	0.22121517
105	0x3db664be	0.08905934
106	0x3e95fd1e	0.29294676
107	0x3eca3430	0.3949294
108	0x3ed437a1	0.4144869
109	0xbf4ea29a	-0.8071686
110	0x3f3c82ce	0.7363709
111	0xbf73f1cc	-0.9529083
112	0xbe1a87c5	-0.15090854
113	0xc02103ca	-2.5158563
114	0xbdbaf93f	-0.09129571
115	0x3c384c9c	0.011248734
116	0x3f75901d	0.95923024
117	0x3ec7ea71	0.39046052
118	0xbf695d87	-0.91158336
119	0x3cf8f0a6	0.030388188
120	0xbf23a86f	-0.63928884
121	0xbf0ebd7a	-0.5575787
122	0x40047f5f	2.070274
123	0xbf0b0aec	-0.5431354
124	0x3e847f92	0.25878578
125	0x3f968902	1.1760561
126	0x3f646763	0.89220256
127	0x3faf2776	1.3683918
128	0xbf5b852f	-0.857501
129	0xbec90709	-0.3926318
130	0xbf6c5d0d	-0.92329484
131	0x3f2143ee	0.6299428
132	0x3f27d8e7	0.6556534
133	0x3f05224a	0.52005446
134	0x40011cd1	2.0173838
135	0xbf851985	-1.0398413
136	0xbe938292	-0.28810555
137	0x3e457f44	0.19286829
138	0xbef63e31	-0.48094323
139	0xbf97b64b	-1.1852506
140	0xbdedf64f	-0.11619245
141	0xbf878048	-1.0586023
142	0xbe997b78	-0.29977012
143	0x3e657068	0.22406161
144	0xbe598755	-0.21243031
145	0x3d7e8906	0.062142394
146	0x3e58c114	0.21167403
147	0x3f98f961	1.1951104
148	0x3eaea3a1	0.34109214
149	0x3ebe614f	0.37183616
150	0xbe82115e	-0.25403875
151	0xbe138519	-0.14406241
152	0x3e199758	0.1499914
153	0xbf34657b	-0.70467347
154	0xbff3fca0	-1.906147
155	0x3d9931c3	0.074801944
156	0xbf3fe7cb	-0.74963063
157	0x3e9155fa	0.28385907
158	0x3e579fb4	0.21057016
159	0x3ed490ef	0.41516826
160	0x3f719ef9	0.943832
161	0xbf8e80ac	-1.1133018
162	0x3ebe06e6	0.37114638
163	0x3d01dbee	0.031703882
164	0x3f625620	0.88412666
165	0xbeccdf99	-0.4001434
166	0x3f37e53a	0.71834147
167	0x3f1bb91c	0.6082933
168	0x3e56087c	0.20901674
169	0x3eb50a02	0.35359198
170	0xbe3924bb	-0.18080418
171	0x3e5ef8b1	0.21774556
172	0xbe2b1ae2	-0.16709474
173	0xbf8798ca	-1.0593503
174	0x3eaf297e	0.34211344
175	0xbfb3b858	-1.4040632
176	0xbcae4be7	-0.021276427
177	0xbec04174	-0.37549937
178	0xbfd3c741	-1.6545182
179	0xbeafb0ef	-0.34314677
180	0x3f8a1174	1.0786576
181	0x3e399c19	0.18125953
182	0x3fc63d4e	1.5487459
183	0x3f43c979	0.764793
184	0xbf80e76a	-1.0070622
185	0xbf5921fa	-0.8481747
186	0x3fc9a9c5	1.5754935
187	0x3e961aad	0.29317227
188	0x3f39d312	0.7258769
189	0xbf902e7e	-1.1264188
190	0xbf868f44	-1.0512471
191	0xbf89b6fa	-1.0758965
192	0xbf2f2f84	-0.6843188
193	0x3f0dc275	0.5537484
194	0x3eed3c05	0.46334854
195	0x3eee9360	0.46596813
196	0x3ea01203	0.31263742
197	0x3f4dab27	0.8033928
198	0xbeb0cf20	-0.34533024
199	0x3f82be2b	1.0214285
200	0xbd04fee5	-0.03246965
201	0xbf94e9eb	-1.1633886
202	0x3f063d89	0.52437645
203	0x3f022fbf	0.50854105
204	0x3f0eb647	0.55746883
205	0xbf87488c	-1.0569015
206	0x3f2977a2	0.6619817
207	0xbf10bfb8	-0.5654254
208	0x3f7ae57c	0.98006415
209	0x3dbadbb1	0.09123934
210	0x3f78b13f	0.97145456
211	0x3f299077	0.6623606
212	0xbfae9954	-1.3640542
213	0x3f84b539	1.0367805
214	0xbeb2a749	-0.34893253
215	0xbfb0ad86	-1.3802955
216	0x3f904767	1.127179
217	0x3f931d06	1.1493232
218	0xbf4927e6	-0.78576505
219	0x3eefd753	0.46843967
220	0x3ed117d5	0.40838495
221	0xbaa863cc	-0.0012847125
222	0xbf84386c	-1.0329719
223	0xbe3fde1e	-0.18737075
224	0xbe98348b	-0.29727587
225	0x3fccb14d	1.5991608
226	0x3ebdeca3	0.37094602
227	0x3e96845c	0.29397857
228	0xbe2f50df	-0.17120694
229	0x3f088ebe	0.5334281
230	0xbe429c99	-0.1900505
231	0xbf9f37b4	-1.2438874
232	0xbe92cc2c	-0.28671396
233	0xbf0b6e21	-0.5446492
234	0xbed93274	-0.42421305
235	0x3f5970f2	0.84937966
236	0xbf432995	-0.76235324
237	0x3f4c09db	0.7970254
238	0x3f89d83f	1.0769118
239	0xbff2e1bc	-1.8975139
240	0xbfb51207	-1.4146127
241	0xbff25197	-1.8931149
242	0xbc42c43d	-0.011887607
243	0xbf83880f	-1.0275897
244	0x3fc72b3f	1.5560073
245	0xbe50d1b9	-0.20392503
246	0x3f06d562	0.52669346
247	0xbe2037e8	-0.15646327
248	0x3c8441cb	0.016144654
249	0x3f79aab2	0.97526085
250	0x3f8a4085	1.080094
251	0xbee57a51	-0.44819883
252	0xbf627b5d	-0.8846949
253	0x3dc0b432	0.094093695
254	0x3ff2dfe1	1.8974572
255	0x3ee1c270	0.44093657

weight_ih_l0 f4 [60, 20]
0	0xbe674278	-0.2258395
1	0xbd9bdfe6	-0.076110646
2	0xbded6c2e	-0.11592899
3	0xbd90f4fa	-0.070779756
4	0xbe1ca48f	-0.15297149
5	0xbe4f597a	-0.20248976
6	0xbe84dd46	-0.25950068
7	0x3ddc6a0a	0.10762413
8	0xbd8595cd	-0.06522713
9	0x3e309645	0.17244823
10	0xbd91cbe7	-0.071189694
11	0xbecc2fa2	-0.3988009
12	0x3dc20fd2	0.09475674
13	0xbeb04c3e	-0.34433168
14	0x3e20d721	0.15707065
15	0x3e3326f4	0.17495328
16	0xbe0c31a9	-0.13690819
17	0x3e493ede	0.19652888
18	0x3e87a486	0.2649271
19	0xbcf63cfe	-0.03005838
20	0x3e769c39	0.24083032
21	0x3d84a86e	0.06477438
22	0xbdd8ba3a	-0.10582395
23	0xbcbb8521	-0.02289063
24	0x3d3d77d2	0.046256848
25	0xbe0d59bf	-0.13803767
26	0xbcbe41f4	-0.023224808
27	0x3e1807a9	0.14846672
28	0x3e60ff9c	0.21972507
29	0x3c1b231b	0.009468819
30	0x3d99b069	0.07504351
31	0xbe466aed	-0.19376726
32	0xbd6c0bf9	-0.057628606
33	0xbe10e63d	-0.14150329
34	0xbdc479b6	-0.09593527
35	0x3d977398	0.07395095
36	0xbcb4a002	-0.022048954
37	0xbe2320c3	-0.15930466
38	0xbe4c2943	-0.19937615
39	0xbd3d2a58	-0.04618296
40	0x3e27f310	0.16401315
41	0xbdb68bb4	-0.08913365
42	0x3e3927da	0.18081608
43	0xbe230cb9	-0.15922822
44	0xbe2baf8d	-0.16766186
45	0xbd878a21	-0.06618143
46	0xbe13e26a	-0.14441839
47	0x3db27a9c	0.08714792
48	0xbdcb7b71	-0.09935654
49	0xbc9dfd0f	-0.019285707
50	0xbd426995	-0.047463972
51	0x3d6f8616	0.058477484
52	0x3de26270	0.11053932
53	0x3e4215c4	0.18953615
54	0xbd931d8b	-0.07183369
55	0xbe04f76c	-0.12985009
56	0xbd8fffa9	-0.07031185
57	0x3e537d7d	0.20653339
58	0x3d90ca06	0.07069783
59	0x3df65936	0.120287344
60	0x3e8c0573	0.27347907
61	0x3e8e042f	0.27737567
62	0x3e21c85d	0.15799089
63	0x3e44cfee	0.19219944
64	0x3d1c1e0b	0.03811459
65	0xbc845b1c	-0.016156726
66	0xbe3b80cc	-0.18310851
67	0x3e7d2788	0.24722111
68	0x3def7f4b	0.11694201
69	0x3e59aff0	0.21258521
70	0xbded2ccb	-0.11580809
71	0xbbae7cab	-0.00532492
72	0xbe28390e	-0.16428015
73	0x3e810f7a	0.2520712
74	0x3d6573f3	0.05601878
75	0x3e83274c	0.2561592
76	0xbcc5e379	-0.024156319
77	0xbd7cd628	-0.061727673
78	0x3e01bbbd	0.12669273
79	0x3d57143f	0.052509543
80	0x3dcfb93b	0.10142752
81	0x3ce30ae8	0.027715161
82	0xbcd0f7a8	-0.025508717
83	0xbd225dbd	-0.039640177
84	0xbca02dd5	-0.019553104
85	0xbe3949ee	-0.18094608
86	0x3d94a5b1	0.07258166
87	0x3d5d75ba	0.05406735
88	0xbd0a8b74	-0.0338244
89	0xbcc6c3f4	-0.02426336
90	0xbdf8afa7	-0.12142878
91	0xbe557449	-0.2084514
92	0x3e2feb35	0.17179568
93	0xbdbec0df	-0.09314131
94	0xbe0114f1	-0.12605645
95	0xbe147aed	-0.14500017
96	0x3c9e9bc8	0.019361392
97	0xbdaf05db	-0.08546039
98	0xbcfe2d60	-0.031027496
99	0xbdfe2273	-0.124089144
100	0x3caa745c	0.020807438
101	0xbe752f1f	-0.23943757
102	0xbc3025f9	-0.010751241
103	0xbe620567	-0.22072373
104	0x3d7f3381	0.062304977
105	0xbd46fbb4	-0.048579887
106	0x3e81b014	0.2532965
107	0xbdb177d0	-0.086654305
108	0x3dfee6c3	0.12446358
109	0xbe0989cf	-0.13431476
110	0x3c72ddd6	0.014823398
111	0xbe806c3a	-0.2508257
112	0xbe339f60	-0.17541265
113	0x3e025997	0.12729488
114	0xbb8d5b53	-0.004313865
115	0x3e2ac96d	0.166784
116	0xbae7e688	-0.0017692605
117	0x3dcf179a	0.101119235
118	0x3d28df7e	0.041228764
119	0x3e76a5b8	0.24086654
120	0x3a1bf8f8	0.000594988
121	0xbde6400c	-0.11242685
122	0x3e5327c2	0.20620635
123	0x3e1cd9f1	0.15317513
124	0xbe2b20f0	-0.16711783
125	0x3ea3eefd	0.3201827
126	0x3e0788fe	0.13235852
127	0xbe0f8111	-0.14014079
128	0x3e1eedda	0.1552042
129	0x3cc2bb8e	0.023771074
130	0xbe15343d	-0.14570709
131	0x3ddf1996	0.10893552
132	0xbe221742	-0.15829185
133	0x3e27959d	0.16365667
134	0xbe3e86af	-0.18606065
135	0x3e6c8bda	0.23100224
136	0x3e6a01e2	0.2285228
137	0x3db71b30	0.089407325
138	0xbd02dc6d	-0.031948496
139	0x3e5c50f2	0.21515253
140	0x3e747214	0.23871642
141	0xbe817641	-0.25285533
142	0x3eae564f	0.34050223
143	0xbe1bae60	-0.15203238
144	0x3ca89554	0.020579018
145	0xbca206b1	-0.019778581
146	0x3d8cce14	0.06875244
147	0xbe19320a	-0.14960495
148	0x3dc72088	0.09723002
149	0xbde38a43	-0.11110356
150	0x3e09bb60	0.13450384
151	0xbe62cab9	-0.22147645
152	0x3e82f2a2	0.2557574
153	0x3e736d3c	0.23772138
154	0xbe3af5b6	-0.18257794
155	0xbe984153	-0.29737338
156	0xbe363290	-0.17792726
157	0xbe1f7a04	-0.15573889
158	0xbe80d128	-0.25159574
159	0xbd4fbdbf	-0.050718065
160	0xbe5740ff	-0.21020888
161	0x3c04ace5	0.008097862
162	0xbc5c5457	-0.013447843
163	0xbe37c5de	-0.17946574
164	0x3e42824b	0.18995015
165	0x3e18ab40	0.14909077
166	0x3e30d388	0.17268193
167	0xbe483e40	-0.19554996
168	0xbe0b81f1	-0.13623787
169	0xbd8156e1	-0.06315399
170	0x3c2dcb82	0.010607602
171	0xbd1347e0	-0.035957217
172	0xbd3f5876	-0.046715222
173	0x3df1b68d	0.11802397
174	0x3caa8bb7	0.020818574
175	0x3e1ee0ba	0.15515414
176	0x3d42fb75	0.04760309
177	0x3e0b2090	0.1358664
178	0xbe9b2b1b	-0.30306324
179	0x3daa485a	0.08314581
180	0x3e85c1c4	0.26124394
181	0xbc57d2c7	-0.013172812
182	0xbd6f3f41	-0.058409933
183	0x3cd828bf	0.026386617
184	0x3c9d0549	0.01916756
185	0x3e4710ad	0.19439955
186	0x3cf60628	0.030032232
187	0x3e8c30e4	0.2738105
188	0x3e129f4f	0.14318584
189	0xbdd9961b	-0.106243335
190	0x3cc50cf9	0.024054037
191	0xbe2f2630	-0.17104411
192	0x3db9f015	0.09078995
193	0x3e3803ac	0.1797015
194	0xbe3e3dcb	-0.1857826
195	0xbdbf790e	-0.09349261
196	0xbe85f995	-0.26166978
197	0xbe089909	-0.13339628
198	0x3e13d943	0.14438348
199	0x3e0dd53f	0.13850878
200	0xbd99f7f8	-0.075179994
201	0xbe87bbcf	-0.26510474
202	0x3d71634e	0.058932595
203	0x3d6de91c	0.05808364
204	0x3d955d19	0.072931476
205	0x3b78d368	0.0037967805
206	0xbd7ea75b	-0.06217132
207	0xbe33b84c	-0.17550772
208	0xbcea7123	-0.0286184
209	0xbe8c0274	-0.27345622
210	0x3e42fbfc	0.19041437
211	0x3e3269be	0.1742315
212	0xbe06bf1b	-0.13158838
213	0xbddacdcc	-0.10683784
214	0x3e9bb029	0.30407837
215	0x3e6dff06	0.23241815
216	0x3e8e8b7f	0.27840802
217	0xbdfa67f0	-0.12226856
218	0x3d837c84	0.06420234
219	0x3e58eee5	0.21184881
220	0xbd5175bc	-0.05113767
221	0x3d005d5c	0.031339034
222	0xbaaef12e	-0.0013347024
223	0x3e76fa90	0.2411902
224	0xbe1ff778	-0.15621746
225	0xbddc768d	-0.10764799
226	0x3d7f4b2e	0.062327556
227	0xbe6e3af1	-0.23264672
228	0xbc9eb970	-0.019375533
229	0x3e17351d	0.14766355
230	0x3e0c7312	0.13715771
231	0x3e8c4dc5	0.27403083
232	0x3e2b2691	0.1671393
233	0x3e02e50b	0.12782685
234	0xbd8f641b	-0.070015155
235	0x3db1182c	0.086471885
236	0xbe27bf48	-0.16381562
237	0x3df2a958	0.11848706
238	0xbcffc413	-0.031221425
239	0x3e8663e1	0.26248077
240	0x3e96797d	0.29389563
241	0x3e84fd0c	0.2597431
242	0xbe199a5a	-0.15000287
243	0xbdf44283	-0.119267486
244	0x3e2416e2	0.16024354
245	0xbe05fa07	-0.13083659
246	0xbdce69e4	-0.10078791
247	0x3a0b687c	0.00053179986
248	0xbd047c99	-0.032345388
249	0x3df25115	0.118318714
250	0x3de5fd95	0.112300076
251	0xbdd53cde	-0.10412
252	0x3c696556	0.014245352
253	0xbd039b6e	-0.03213065
254	0xbe775b79	-0.24155988
255	0xbbc26375	-0.0059322664

weight_hh_l0 f4 [60, 20]
0	0x3ec9ff65	0.39452663
1	0x3d283085	0.041061897
2	0xbe8d4149	-0.2758887
3	0x3e16ba53	0.14719515
4	0x3dc89046	0.09793143
5	0x3e1d219d	0.15344854
6	0xbe970d97	-0.29502556
7	0xbdfb834d	-0.12280903
8	0xbd8c6fbe	-0.06857251
9	0xbde45829	-0.11149628
10	0xbe49d24b	-0.19709127
11	0xbe3c3b26	-0.18381938
12	0x3dc26985	0.094927825
13	0xbda989a2	-0.082782045
14	0x3e626e06	0.22112283
15	0x3d0ef112	0.03489787
16	0xbc027a1b	-0.0079636825
17	0x3d274345	0.040835638
18	0xbd707194	-0.058702067
19	0xbd6ba9ed	-0.0575351
20	0xbe3c07a0	-0.18362284
21	0x3e3312f7	0.17487703
22	0xbdc71fe0	-0.097228765
23	0x3d8467c1	0.06465102
24	0xbddc2a87	-0.10750299
25	0xbe903aef	-0.28169963
26	0xbe96d4f0	-0.29459333
27	0xbd81f1b2	-0.06344928
28	0xbe87758e	-0.26456875
29	0xbe7081ce	-0.23487017
30	0xbd97a267	-0.07404023
31	0xbe2b6231	-0.16736676
32	0x39b1ae9e	0.0003389017
33	0x3d88cdf8	0.066799104
34	0x3d950133	0.07275619
35	0x3e0d9460	0.13826132
36	0x3e899cd5	0.26877466
37	0xbd6911ee	-0.056901865
38	0x3e155e63	0.14586787
39	0xbe0d3dd9	-0.13793124
40	0xbe3297f9	-0.17440785
41	0x3da449c2	0.08021881
42	0xbe686fa3	-0.22698836
43	0xbd7ca798	-0.061683267
44	0x3dde8979	0.108660646
45	0xbc8e506a	-0.017372329
46	0xbdfc7d14	-0.12328544
47	0xbea5d3a9	-0.32388046
48	0xbd19973f	-0.037497755
49	0xbdc8dab2	-0.09807338
50	0x3e0dcfda	0.1384882
51	0x3daa0124	0.08300999
52	0x3db78653	0.08961167
53	0xbe670d07	-0.22563563
54	0x3e13de93	0.14440374
55	0xbddb7062	-0.10714795
56	0x3dbb7f2e	0.09155117
57	0xbe864570	-0.26224852
58	0x3d3d606d	0.046234537
59	0x3c82da78	0.015973315
60	0xbdb733e6	-0.08945446
61	0x3d7e307e	0.062057965
62	0x3e412c49	0.1886455
63	0x3ebb83b2	0.36623913
64	0x3d7828d3	0.060585808
65	0xbdf0dae9	-0.11760504
66	0x3e0c9d7f	0.13731955
67	0xbdbcad71	-0.09212769
68	0xbe8157e5	-0.2526237
69	0xbd91b2ee	-0.07114206
70	0xbd6719f0	-0.05642122
71	0x3e5edb4c	0.21763343
72	0xbe9c222c	-0.3049482
73	0xbeb15b17	-0.3463981
74	0xbd6d8b25	-0.057994027
75	0x3d5c80f2	0.05383391
76	0xbe32602b	-0.17419498
77	0xbd6161c1	-0.055024866
78	0x3db9a2c7	0.090642504
79	0x3e61ee26	0.22063503
80	0x3e5163f0	0.2044828
81	0x3e8b2242	0.27174574
82	0xbe63f057	-0.22259651
83	0x3e463da7	0.19359456
84	0x3e0dd88c	0.13852137
85	0xbe866000	-0.26245117
86	0xbe952adf	-0.2913427
87	0xbe366ceb	-0.17814986
88	0xbdbbf4df	-0.09177565
89	0xbe86e51b	-0.2634667
90	0xbd8b96e2	-0.06815888
91	0x3da2e35b	0.07953521
92	0x3e5c351d	0.21504636
93	0xbdf20c5f	-0.11818766
94	0x3e57cbaf	0.21073793
95	0x3e35b4ba	0.17744723
96	0x3cb720e0	0.022354543
97	0xbd9b20a3	-0.07574584
98	0x3e756e6c	0.23967904
99	0xbe654305	-0.22388847
100	0xbe2d0ce9	-0.16899456
101	0x3dd8911e	0.10574554
102	0x3dc83211	0.097751744
103	0x3e4b1820	0.19833422
104	0x3c06a9b5	0.008219172
105	0xbec0396c	-0.3754381
106	0xbde66874	-0.112503916
107	0xbe83e2d7	-0.25759003
108	0x3cf4592c	0.029827677
109	0x3b7c3ad6	0.0038487217
110	0xbe083ce4	-0.13304478
111	0xbc559a24	-0.013037238
112	0xbe3120b0	-0.17297626
113	0xbda00dc6	-0.07815127
114	0xbe9d4159	-0.3071392
115	0xbdf8b9ab	-0.12144788
116	0x3e6163ad	0.2201068
117	0x3cd2408f	0.02566555
118	0x3c9ea93c	0.019367807
119	0x3dda3c23	0.106560014
120	0xbdca8a6b	-0.098896824
121	0x3dc855d7	0.09781998
122	0xbe341f43	-0.1759005
123	0x3d304738	0.04303667
124	0x3d7b2c55	0.061321575
125	0xbe102419	-0.1407627
126	0xbda789f4	-0.08180609
127	0x3d99089d	0.07472346
128	0xbda56e6f	-0.08077704
129	0xbeafeef4	-0.34361994
130	0xbdaccedb	-0.08437892
131	0xbdb9dedc	-0.0907571
132	0xbcbb0a9d	-0.02283221
133	0x3e093611	0.13399531
134	0xbe881c56	-0.2658412
135	0xbeb7c478	-0.3589208
136	0x3e118001	0.14208986
137	0xbea705fb	-0.3262175
138	0xbb9f98a6	-0.004870492
139	0x3d57e42d	0.05270784
140	0x3d8638a9	0.06553776
141	0xbc0f77f1	-0.008756624
142	0x3e702d16	0.23454699
143	0x3cb4a6eb	0.022052249
144	0xbe27ccec	-0.16386765
145	0xbd8dacf9	-0.069177575
146	0xbd330b7e	-0.04371213
147	0x3de7b4b6	0.11313765
148	0xbe5cd04f	-0.21563838
149	0x3e35e791	0.17764117
150	0x3e2e359f	0.17012642
151	0x3e24c84d	0.16092034
152	0xbe513b72	-0.20432833
153	0x3d09c865	0.033638377
154	0xbe708c90	-0.2349112
155	0xbd23fa54	-0.040033653
156	0xbd89d28c	-0.06729612
157	0xbdebca65	-0.11513213
158	0xbdc50eca	-0.096219614
159	0xbc96a206	-0.018387806
160	0xbd0c2796	-0.03421744
161	0x3e6f110f	0.23346351
162	0xbe530409	-0.20607008
163	0x3d274fcb	0.04084758
164	0xbe906de2	-0.28208834
165	0xbc7e74f2	-0.015530812
166	0xbdb6a4bd	-0.0891814
167	0xbdfcb87d	-0.12339876
168	0xbe1f41fb	-0.15552513
169	0xbe6370f1	-0.22211052
170	0xbe334bbc	-0.17509359
171	0xbd29e19b	-0.04147492
172	0xbe68aa74	-0.22721273
173	0x3be43f6c	0.0069655683
174	0x3cc92ac0	0.024556518
175	0xbdfc05dc	-0.12305805
176	0x3db8040e	0.08985148
177	0x3d9fbc1d	0.07799552
178	0x3db05071	0.08609093
179	0xbdfb61cf	-0.12274515
180	0xbd6e5211	-0.058183733
181	0x3e8da9bb	0.27668557
182	0x3b39b294	0.00283352
183	0xbd4773ed	-0.04869454
184	0x3e8bdfec	0.27319276
185	0x3e58b097	0.21161114
186	0xbddd28d8	-0.10798806
187	0x3e5520c9	0.20813288
188	0xbe0fa7b8	-0.14028823
189	0xbcda3aa7	-0.026639296
190	0x3e093040	0.13397312
191	0x3e54b710	0.20772958
192	0x3d37fd50	0.044919312
193	0x3c85ab86	0.01631714
194	0x3daf5d29	0.08562691
195	0xbc421b00	-0.011847258
196	0x3e77e508	0.24208462
197	0x3c3c3a12	0.011488454
198	0xbe25441c	-0.16139263
199	0xbdc05ba3	-0.09392478
200	0xbde4474e	-0.11146413
201	0x3ea5c123	0.32373914
202	0x3dc2f69f	0.095196955
203	0xbe0014f0	-0.12507987
204	0x3e71121a	0.23542061
205	0xbde002c4	-0.109380275
206	0xbe2c5278	-0.16828334
207	0xbdd2acf6	-0.10286896
208	0xbdab8360	-0.08374667
209	0xbe02cbb5	-0.1277302
210	0x3d7a8fe2	0.061172374
211	0x3e207e3a	0.15673152
212	0x3d991773	0.07475176
213	0xbe44630e	-0.19178411
214	0x3ea2cb02	0.31795508
215	0x3e8ec7bf	0.2788677
216	0xbb8a6fbf	-0.004224747
217	0x3da331ef	0.079685085
218	0x3e8d4e74	0.27598917
219	0xbdb38052	-0.087647095
220	0x3e433a85	0.19065292
221	0xbda42576	-0.080149576
222	0xba910e13	-0.0011066817
223	0x3e6d6c7b	0.23185913
224	0x3b2fdb39	0.0026833548
225	0xbe2f4a5b	-0.17118208
226	0xbca8b0b2	-0.020592067
227	0xbca33359	-0.019921945
228	0xbe046208	-0.12928021
229	0x3de8c6c9	0.1136604
230	0xbdc50d45	-0.096216716
231	0xbd342e41	-0.043989424
232	0x3eac8c65	0.33700863
233	0xbd001a2c	-0.03127496
234	0x3c4152a9	0.011799493
235	0x3c56d4d8	0.013112269
236	0xbe8ef50e	-0.27921337
237	0xbe7b5acb	-0.24546354
238	0xbdd68ac1	-0.10475684
239	0x3d3ace4a	0.04560689
240	0x3dc8fdea	0.09814055
241	0x3d948ab8	0.07253021
242	0x3e0c5f8f	0.13708328
243	0x3e3c3913	0.18381147
244	0x3dfe416b	0.12414821
245	0xbe7162cb	-0.23572843
246	0xbe315610	-0.17317986
247	0xbe39ad82	-0.18132594
248	0xbe24e289	-0.16102041
249	0xbda8eb70	-0.08248031
250	0xbd491491	-0.04909188
251	0xbdba254f	-0.09089147
252	0x3d577b37	0.05260774
253	0xbdb802c4	-0.089849025
254	0xbe149644	-0.14510447
255	0xbd963e09	-0.07336051

bias_ih_l0 f4 [60]
0	0xbe12ed4e	-0.14348337
1	0x3eaef0ad	0.34167996
2	0x3d9fb05d	0.077973105
3	0x3e9468c1	0.2898617
4	0x3d83e39f	0.064399
5	0x3e40783b	0.18795864
6	0x3d8f2809	0.06990058
7	0x3e02cca1	0.12773372
8	0x3d43e8b4	0.047829345
9	0x3e54a2d7	0.20765243
10	0xbd287dbf	-0.041135546
11	0x3d337860	0.04381597
12	0x3e30b177	0.17255197
13	0x3e217889	0.15768637
14	0x3e8da431	0.2766433
15	0xbdd39341	-0.10330821
16	0x3eaa57f2	0.33270222
17	0x3e02b884	0.127657
18	0xbd0581d2	-0.03259451
19	0x3e87afdc	0.26501358
20	0xbd803d8a	-0.06261738
21	0x3d1727d8	0.036903232
22	0x3db17e72	0.08666696
23	0x3d060427	0.032718804
24	0xbe9c723c	-0.30555904
25	0x3d488546	0.048955224
26	0xbd15476e	-0.036445074
27	0xbdc7eefb	-0.09762379
28	0x3d833379	0.06406302
29	0xbb844576	-0.0040366007
30	0xbe0d9049	-0.13824572
31	0xbe005733	-0.12533264
32	0xbe347ede	-0.17626521
33	0x3e28924a	0.16462055
34	0x3e439171	0.1909845
35	0x3d67adae	0.05656212
36	0xbcc0762b	-0.023493847
37	0xbe2069ed	-0.15665407
38	0xbccdc0ea	-0.025116403
39	0xbe6bd0b6	-0.23028836
40	0xbe04a43d	-0.12953277
41	0x3d8eb9aa	0.06969006
42	0xbe67c85c	-0.22635025
43	0x3e952715	0.2913138
44	0xbc329a54	-0.0109010525
45	0xbe819216	-0.25306767
46	0xbe994be6	-0.29940718
47	0xbe85cd77	-0.2613332
48	0xbe59f108	-0.21283352
49	0xbe0e4280	-0.13892555
50	0x3d8e0dc8	0.06936222
51	0xbe23fb8a	-0.16013923
52	0xbe10048d	-0.14064236
53	0xbd8273ad	-0.0636972
54	0x3d9baaaf	0.07600915
55	0x3e5817b7	0.21102796
56	0x3e28e6dd	0.16494317
57	0xbe8df6fa	-0.2772749
58	0x3cdff694	0.027339257
59	0xbdba9599	-0.09110565

bias_hh_l0 f4 [60]
0	0x3e437a87	0.19089709
1	0x3e87aa4f	0.26497123
2	0x3ccb5e9d	0.024825389
3	0x3e815966	0.25263518
4	0x3d12fc93	0.035885405
5	0x3e5ab68d	0.213587
6	0xbc560d73	-0.01306473
7	0xbdb94cdd	-0.09047864
8	0x3e57d895	0.21078713
9	0x3e698048	0.22802842
10	0x3dbe226a	0.09283908
11	0xbd528445	-0.051395673
12	0x3e2c1ad4	0.16807109
13	0x3e340f3b	0.17583935
14	0x3d746636	0.05966779
15	0x3e73c734	0.23806459
16	0x3e098ef2	0.13433436
17	0xbd7882d7	-0.060671654
18	0x3d3865a1	0.045018796
19	0x3c0d6b90	0.008631602
20	0x3cbbb91f	0.022915421
21	0xbe73e3b1	-0.23817326
22	0xbd81c1f5	-0.063358225
23	0x3e271584	0.16316801
24	0xbea6bb12	-0.32564598
25	0xbd9882c7	-0.07446819
26	0xbe38c4a6	-0.18043765
27	0xbdb45b41	-0.08806468
28	0xbe4dbb41	-0.20090963
29	0xbe8b1c2d	-0.27169934
30	0x3d2ca355	0.042147953
31	0xbd88f47f	-0.06687259
32	0xbde05fe3	-0.10955789
33	0xbcc89d85	-0.024489174
34	0x3dee4f4b	0.11636218
35	0x3e86b17f	0.26307294
36	0xbd3abb78	-0.04558894
37	0xbd76ec1f	-0.060283776
38	0x3e453c26	0.19261226
39	0xbe4d7b85	-0.2006665
40	0xbc99827e	-0.018738981
41	0xbb9d8737	-0.0048073786
42	0x3dd1f14d	0.102511026
43	0x3e6e8975	0.23294623
44	0xbe471881	-0.19442941
45	0xbe35244e	-0.1768963
46	0x3cad93c5	0.021188626
47	0xbde26bbf	-0.11055707
48	0xbe723c79	-0.23655881
49	0xbdeb836b	-0.11499675
50	0x3da321dc	0.079654425
51	0xbe7f9a26	-0.24961147
52	0xbd992b61	-0.07478977
53	0xbe364677	-0.17800318
54	0xbdc28036	-0.094971105
55	0xbe6bf819	-0.2304386
56	0x3e425f5d	0.1898169
57	0xbc0c5f73	-0.008567679
58	0x3e93bac0	0.28853416
59	0xbe7a32ee	-0.2443349

weight_ih_l0_reverse f4 [60, 20]
0	0xbd9a8d4b	-0.07546481
1	0xbe367410	-0.17817712
2	0xbe1d9e05	-0.15392311
3	0xbe1bf846	-0.15231428
4	0x3c2164ad	0.009850663
5	0xbc155eb7	-0.00911682
6	0x3e4e8a10	0.20169854
7	0x3e47accf	0.19499515
8	0xbe6b5a83	-0.22983746
9	0x3e349e27	0.17638455
10	0x3d32161b	0.043478113
11	0xbe596c87	-0.21232806
12	0x3de42096	0.11139028
13	0x3e0181d5	0.12647183
14	0x3d850c47	0.06496482
15	0x3b8c833f	0.0042881067
16	0x3dd5939d	0.104285456
17	0xbe9c5a6f	-0.30537745
18	0x3d5e9dd4	0.054349735
19	0x3e601162	0.21881631
20	0xbe3fb1da	-0.18720189
21	0xbe41704a	-0.18890491
22	0xbe2a81b3	-0.16651039
23	0xbe338c6c	-0.17534035
24	0x3e745cd8	0.23863542
25	0xbd8cd681	-0.06876851
26	0x3db25589	0.08707721
27	0xbd069d19	-0.032864664
28	0x3db82a98	0.08992499
29	0xbda80fc2	-0.082061306
30	0xbb9141cd	-0.004432893
31	0xbd2f09de	-0.04273402
32	0xbdf22c3f	-0.118248455
33	0x3e7257c6	0.23666295
34	0xbcd80fb7	-0.02637468
35	0x3ca51d4c	0.020155571
36	0x3d1e8964	0.038705245
37	0x3e75c031	0.23999096
38	0xbe841cd8	-0.25803256
39	0x3c4407a0	0.011964709
40	0x3dfd5bbb	0.12371012
41	0x3de770d1	0.11300815
42	0xbdbf030c	-0.09326753
43	0xbdefb1c2	-0.117038265
44	0x3e88a337	0.26687023
45	0xbe5a628c	-0.21326655
46	0x3e80d23f	0.25160405
47	0x3d7c4b0f	0.06159502
48	0xbea84907	-0.32868215
49	0x3e376da9	0.17912926
50	0xbdc2ab24	-0.09505299
51	0xbde4a252	-0.11163773
52	0xbceedf5a	-0.029159237
53	0x3e369fde	0.17834422
54	0xbcc8d44c	-0.024515294
55	0x3e360400	0.17774963
56	0x3d60b706	0.054862045
57	0xbd542fd5	-0.05180343
58	0xbe3a6439	-0.18202294
59	0xbe9535ec	-0.29142702
60	0x3d2556c5	0.040365953
61	0xbe6c5c5c	-0.23082107
62	0x3da44a8f	0.080220334
63	0x3cfd7eaa	0.030944187
64	0x3e077a53	0.13230257
65	0xbe2cf7c1	-0.16891386
66	0xbe70ed39	-0.23527993
67	0xbe2b3355	-0.167188
68	0x3e5654ed	0.20930834
69	0x3da9c3c3	0.08289292
70	0xbd900a9a	-0.07033272
71	0x3e4e92ab	0.20173137
72	0xbe00a636	-0.12563404
73	0x3e2d3176	0.16913399
74	0x3d9d34f8	0.076761186
75	0xbe2eb569	-0.1706139
76	0xbc04eb05	-0.008112674
77	0xbe04d252	-0.12970856
78	0xbd62866d	-0.05530398
79	0x3e43a93e	0.1910753
80	0x3de8982a	0.11357148
81	0xbe59ac4f	-0.21257137
82	0xbcb835af	-0.022486536
83	0x3e07174a	0.13192478
84	0xbd46ff92	-0.048583575
85	0xbdf6f40c	-0.12058267
86	0xbe190d1c	-0.14946407
87	0xbcce4f4c	-0.025184296
88	0x3e52d0d3	0.20587473
89	0xbd34127d	-0.043962944
90	0x3e0cbf07	0.13744746
91	0xbdda72e5	-0.10666446
92	0xbe8221a3	-0.25416288
93	0x3e4af280	0.19819069
94	0xbd7dc1e4	-0.061952487
95	0xbdd0f6f6	-0.10203354
96	0x3de9045e	0.11377786
97	0x3ae8ad69	0.0017751876
98	0xbe216665	-0.15761717
99	0xbeb145f0	-0.3462367
100	0xbd7af32f	-0.061267074
101	0xbca127a6	-0.019672226
102	0x3e249598	0.1607269
103	0x3d528534	0.051396564
104	0x3e8e1409	0.2774966
105	0xbb25c32e	-0.0025293338
106	0xbd23e33c	-0.04001163
107	0x3e50a717	0.2037624
108	0x3e0aa612	0.13539913
109	0xbd78168e	-0.060568385
110	0xbd1094cb	-0.03529815
111	0xbe4fa393	-0.20277242
112	0x3e1347d7	0.14382873
113	0xbd6d020a	-0.057863273
114	0x3e271745	0.1631747
115	0x3e6b5753	0.2298253
116	0xbe3e75ac	-0.18599576
117	0x3e571343	0.21003442
118	0x3e099798	0.13436735
119	0x3dd72e0f	0.10506832
120	0xbe610445	-0.21974285
121	0xbe166bd1	-0.14689566
122	0xbd96fe4f	-0.07372724
123	0x3e18c7f4	0.14920026
124	0x3e6160f9	0.22009648
125	0x3d91923e	0.071079716
126	0x3e7187db	0.23586981
127	0x3e461110	0.19342446
128	0xbcb53052	-0.022117767
129	0xbde40318	-0.111334026
130	0xbdc7781d	-0.09739707
131	0xbe2f9729	-0.17147507
132	0x3d83e263	0.06439664
133	0x3e12149c	0.14265674
134	0xbe0b7bb0	-0.13621402
135	0xbc4f9fed	-0.012672407
136	0xbdf85e2d	-0.121273376
137	0x3d75dded	0.060026098
138	0x3e50421c	0.20337719
139	0x39f85452	0.0004736507
140	0xbe84a4b4	-0.2590691
141	0xbe12a42a	-0.14320436
142	0xbe42646e	-0.18983623
143	0x3df0042b	0.11719545
144	0xbd3cb387	-0.046069648
145	0xbd228a9a	-0.039682962
146	0xbe4e6c4d	-0.20158501
147	0x3c6b7251	0.014370517
148	0x3e6abb02	0.229229
149	0xbdb458a3	-0.088059686
150	0x3e64e7ed	0.22354098
151	0xbea73a46	-0.32661647
152	0xbd8a1586	-0.067423865
153	0x3d5f3516	0.054493986
154	0x3e0bae06	0.13640603
155	0x3ce46b7f	0.02788329
156	0x3e23e835	0.16006549
157	0x3ce15cf9	0.027510153
158	0x3dca23b7	0.09870093
159	0x3e5dd3f3	0.21662883
160	0xbd5708ff	-0.052498814
161	0x3dc4e5b2	0.096141234
162	0xbd084b19	-0.033274744
163	0xbe18b13d	-0.14911361
164	0xbdb2072b	-0.086927734
165	0x3e23772b	0.15963428
166	0xbe166de3	-0.14690356
167	0xbe1e70d6	-0.15472731
168	0x3da5bd7c	0.08092782
169	0x3c61b407	0.013775832
170	0x3dbcb799	0.09214706
171	0x3e9fe70b	0.3123096
172	0xbd9fb802	-0.077987686
173	0x3e33730f	0.1752436
174	0xbcf8a359	-0.030351328
175	0x3e48f334	0.19624025
176	0xbe3e4d15	-0.18584092
177	0x3dc1d288	0.09463984
178	0xbdf162aa	-0.11786397
179	0x3ddfee91	0.10934175
180	0x3dcd7f62	0.10034062
181	0x3e11c4f8	0.14235294
182	0x3d82d79b	0.0638878
183	0xbdc563e7	-0.096381955
184	0xbd47e27b	-0.048799973
185	0x3e0fc8e2	0.14041474
186	0x3e30eab1	0.17277028
187	0x3ea94f8b	0.330685
188	0x3d949b4b	0.07256182
189	0xbe5b0ce4	-0.21391636
190	0x3e03268d	0.12807675
191	0x3d38ddde	0.045133464
192	0x3d76e032	0.060272403
193	0x3d19c328	0.03753963
194	0xbe05a046	-0.1304942
195	0xbd8bf90a	-0.0683461
196	0x3e15ef7c	0.14642137
197	0x3e5145fa	0.2043685
198	0x3db9a376	0.09064381
199	0x3d84e2b8	0.06488556
200	0x3ddd4ed5	0.10806052
201	0xbe15df60	-0.14635992
202	0xbd5e61cb	-0.05429248
203	0xbdc320a0	-0.09527707
204	0x3e2bb12a	0.16766801
205	0x3dcb2b05	0.09920315
206	0xbe4b7445	-0.19868572
207	0x3e0a051f	0.13478516
208	0xbe3f9fb5	-0.18713267
209	0x3d430036	0.047607623
210	0xbd4a0189	-0.04931787
211	0x3dabd772	0.08390702
212	0x3e10b3bd	0.14131065
213	0xbb6582b4	-0.0035020532
214	0x3c8bb4b2	0.017053936
215	0x3c33e681	0.010980249
216	0x3e0e5eee	0.139034
217	0xbcebfa76	-0.028805953
218	0x3db9e346	0.09076552
219	0xbd18de23	-0.03732122
220	0x3e31a3b2	0.17347601
221	0x3dea6b4e	0.11446248
222	0xbe9135b0	-0.28361273
223	0x3d8603ee	0.06543718
224	0xbd191a94	-0.037378863
225	0x3e937806	0.28802508
226	0xbc787929	-0.015165606
227	0xbe77f457	-0.24214302
228	0xbe456b69	-0.19279255
229	0xbe85aca4	-0.26108277
230	0x3e1bac87	0.15202533
231	0xbdf6fee3	-0.120603345
232	0x3e27a15e	0.1637015
233	0x3c97302a	0.018455584
234	0xbd989201	-0.07449723
235	0x3d9d50fb	0.076814614
236	0x3d91ef6f	0.071257465
237	0x3cf4f028	0.029899672
238	0xbc4551bf	-0.012043416
239	0x3d3ec1ac	0.04657142
240	0xbdd30175	-0.10303012
241	0xbdd58993	-0.10426631
242	0xbea7e9a8	-0.32795453
243	0x3e164d20	0.14677858
244	0x3e885a64	0.26631463
245	0x3d67b857	0.056572285
246	0xbd5aacb0	-0.053387344
247	0xbce7afeb	-0.028282126
248	0xbd66babe	-0.056330435
249	0xbd50a44d	-0.05093794
250	0x3dd3895a	0.10328932
251	0xbdd68dd9	-0.10476274
252	0xbe533d05	-0.20628746
253	0xbc794a2d	-0.015215439
254	0x3d910783	0.07081511
255	0x3e1133b3	0.14179878

weight_hh_l0_reverse f4 [60, 20]
0	0xbda7cca6	-0.081933305
1	0xbd29fbe4	-0.041499987
2	0xbe069d69	-0.13145985
3	0xbdb14944	-0.086565524
4	0xbdb6f7e3	-0.089339994
5	0x3ca86546	0.020556103
6	0x3d592a22	0.053018697
7	0xbc9807f7	-0.018558485
8	0x3e104ce9	0.14091839
9	0x3dd3f89a	0.10350151
10	0xbd892d49	-0.066980906
11	0xbe83d3e7	-0.25747606
12	0x3e82353d	0.25431243
13	0xbd756a4d	-0.05991583
14	0xbe665dd3	-0.22496729
15	0xbe5c7c7d	-0.21531864
16	0x3d4acb6f	0.049510416
17	0xbe2c3095	-0.16815408
18	0x3e067005	0.1312867
19	0xbe07673b	-0.13222973
20	0xbe916c48	-0.28402925
21	0xbdc25537	-0.0948891
22	0x3d06137f	0.032733437
23	0x3e482e51	0.19548918
24	0x3d6eb61f	0.058279153
25	0xbe781eaa	-0.24230447
26	0xbdb4fe4f	-0.08837568
27	0x3ec0d634	0.37663424
28	0x391f986a	0.000152202
29	0xbc606945	-0.013696973
30	0x3dd6aaa2	0.104817644
31	0x3aa20b05	0.0012362903
32	0x3e23747c	0.15962404
33	0xbd7c46eb	-0.06159107
34	0x3d93c444	0.07215169
35	0xbe24c874	-0.16092092
36	0x3e69422b	0.22779147
37	0xbde653d5	-0.112464584
38	0x3c09820c	0.008392822
39	0x3ddd7fdf	0.10815405
40	0xbe32aa27	-0.1744772
41	0x3e69aaa1	0.22818996
42	0x3d264bcf	0.04059964
43	0x3e5aab5f	0.21354435
44	0x3e71caf7	0.23612581
45	0x3cf7ede2	0.030264799
46	0x3d0e2b48	0.034709245
47	0x3b0cd38c	0.0021488396
48	0xbe03cda7	-0.12871419
49	0x3d51d7ce	0.051231198
50	0xbe5216e7	-0.20516549
51	0xbe87453f	-0.26420018
52	0x3e725bf9	0.23667897
53	0x3da82f9c	0.08212206
54	0xbdf8896c	-0.12135586
55	0xbd1de8f9	-0.03855226
56	0x3de3341b	0.11093923
57	0xbd500c83	-0.050793182
58	0xbe36f81b	-0.17868082
59	0xbe72e33d	-0.23719497
60	0xbd276b3a	-0.040873744
61	0xbd603812	-0.054740973
62	0x3e08e9d4	0.13370448
63	0x3e4e3a4f	0.2013943
64	0x3e536e40	0.20647526
65	0xbe8d5fc4	-0.27612126
66	0xbd8b8c50	-0.06813872
67	0x3ccf0c8f	0.025274543
68	0xbccf4b53	-0.025304472
69	0xbdcac2d4	-0.09900442
70	0xbd07a74a	-0.033118524
71	0xbe11a159	-0.14221705
72	0x3e0df574	0.13863164
73	0x3dabbf1a	0.08386059
74	0xbdcb6c84	-0.09932807
75	0x3daf70e0	0.08566451
76	0xbdbdd371	-0.09268845
77	0xbdc11370	-0.094275355
78	0x3e7b60d8	0.24548662
79	0x3e3dad8f	0.18523239
80	0xbd7ccd9c	-0.061719522
81	0x3cf65156	0.03006808
82	0x3d9269a4	0.071490556
83	0xbdfeaceb	-0.12435325
84	0xbd9bf489	-0.07615001
85	0xbdf50e5c	-0.119656295
86	0x3c0e9f1e	0.008704929
87	0xbde8c832	-0.11366309
88	0x3cc7f896	0.024410527
89	0xbd0c8642	-0.034307726
90	0xbe33a3fc	-0.17543024
91	0x3e07975f	0.13241337
92	0x3c205cf3	0.009787786
93	0x3d840ddc	0.06447956
94	0xbe87778d	-0.26458398
95	0x3e939944	0.2882787
96	0xbba5378e	-0.005042023
97	0x3d2a08d8	0.04151234
98	0x3df4892e	0.119402274
99	0x3e8342dc	0.25636947
100	0xbddbebf8	-0.10738367
101	0xbde10806	-0.109878585
102	0xbe286cd4	-0.16447765
103	0xbc5d5416	-0.013508817
104	0xbc226d61	-0.009913773
105	0x3c952919	0.018208073
106	0x3e541305	0.2071038
107	0xbc5c3b01	-0.013441802
108	0xbbe52903	-0.0069934144
109	0xbd8bcc37	-0.0682606
110	0xbd944e62	-0.07241513
111	0xbe62694e	-0.22110483
112	0x3d612f92	0.054977007
113	0x3e515f27	0.20446454
114	0xbd7fbf8f	-0.062438544
115	0x3de23dec	0.11046967
116	0xbd4e5ebe	-0.050383322
117	0xbd6aa8df	-0.057289954
118	0xbe516071	-0.20446946
119	0xbe700a2b	-0.23441379
120	0xbe5dda23	-0.21665244
121	0x3d4b086c	0.04956858
122	0xbe670382	-0.22559932
123	0xbe23a7dc	-0.15982002
124	0xbcc17ef2	-0.023620103
125	0xbd768b6b	-0.060191553
126	0xbd8c5429	-0.0685199
127	0xbdc48ac9	-0.09596784
128	0x3e1dd7cf	0.15414356
129	0xbe181f01	-0.14855577
130	0x3de44a48	0.111469805
131	0x3ca98e39	0.0206977
132	0xbdd0f0af	-0.10202157
133	0x3e4f7b70	0.20261931
134	0x3e388ef4	0.18023282
135	0xbe8673fb	-0.2626036
136	0x3da1c5db	0.07899066
137	0x3d98c6ec	0.07459816
138	0xbb802740	-0.003910929
139	0x3e523004	0.20526129
140	0x3e0b2331	0.13587643
141	0xbdb24045	-0.08703665
142	0xbcfd93e4	-0.030954309
143	0xbce91c75	-0.028455952
144	0xbd668990	-0.056283534
145	0xbe39d5c2	-0.18147948
146	0xbd9699e5	-0.07353572
147	0x3e7f722b	0.24945895
148	0x3e740597	0.23830257
149	0xbeb77f08	-0.35839105
150	0xbb31560a	-0.002705934
151	0xbe35025a	-0.17676678
152	0x3cae04f2	0.021242592
153	0x3e5b4a8c	0.21415156
154	0xbda7b6f4	-0.081891924
155	0xbdcf5512	-0.10123648
156	0x3c93b08c	0.01802852
157	0xbd818cc5	-0.06325678
158	0x3e80090f	0.2500691
159	0x3e8d25ef	0.27568004
160	0xbd6d8489	-0.057987723
161	0xbd0dfb51	-0.034663502
162	0xbec8f3f5	-0.39248624
163	0x3de26332	0.11054076
164	0xbd87a7de	-0.06623815
165	0x3e74700b	0.23870866
166	0x3c354846	0.011064595
167	0x3dd7865b	0.10523673
168	0x3db21ce0	0.08696914
169	0x3cc66a10	0.024220496
170	0x3e86b779	0.26311854
171	0x3e03f764	0.12887341
172	0x3ce80376	0.028321963
173	0x3d0edbad	0.034877468
174	0xbcdde7b1	-0.027088018
175	0x3e40a3e7	0.18812524
176	0xbc1d861b	-0.009614493
177	0xbdd731d9	-0.105075546
178	0xbcd0943f	-0.025461314
179	0x3dcafe69	0.09911806
180	0xbe10a700	-0.14126205
181	0x3e04fd95	0.12987359
182	0xbe17ce04	-0.14824682
183	0x3e4e7381	0.20161249
184	0x3d44af4c	0.04801874
185	0x3d3c9ae2	0.046046145
186	0x3cd0a501	0.025469305
187	0xbeacc3c5	-0.3374311
188	0x3e0806c4	0.13283831
189	0xbe8f06f5	-0.27934995
190	0xbe3aa255	-0.18225987
191	0x3e12f484	0.14351088
192	0xbdd622d1	-0.104558595
193	0x3e4c72b6	0.19965634
194	0xbdbe9d71	-0.09307373
195	0xbe504df0	-0.20342231
196	0x3d9b5fbb	0.075866185
197	0x3d152e8b	0.03642134
198	0xbebc474a	-0.3677314
199	0xbde5b600	-0.11216354
200	0xbdd72c5b	-0.10506507
201	0x3ea016b7	0.3126733
202	0x3cb3d0e6	0.021950196
203	0x3e6d0d5f	0.23149632
204	0x3e20ae7a	0.15691558
205	0xbdcaee37	-0.09908717
206	0x3e182460	0.14857626
207	0xbdf437f6	-0.11924736
208	0xbe991e21	-0.299058
209	0x3e16565a	0.14681378
210	0xbe80b102	-0.25135046
211	0xbe0aea58	-0.13565958
212	0x3deea791	0.116530545
213	0x3df82d8d	0.12118063
214	0x39e315eb	0.00043313144
215	0x3e064b46	0.13114652
216	0xbbdf4a16	-0.0068142517
217	0x3e646a18	0.22306097
218	0xbe857dcf	-0.26072547
219	0xbd87ef04	-0.066373855
220	0x3d89309b	0.06698724
221	0x3ead1a33	0.3380905
222	0x3e2b0fb0	0.16705203
223	0x3e0132f8	0.126171
224	0x3bf83710	0.0075749233
225	0x3dcaa612	0.09894957
226	0xbd59bdd2	-0.053159542
227	0xbdc5df7d	-0.09661768
228	0x3e777995	0.24167474
229	0xbdd3ef01	-0.10348321
230	0xbe2e1908	-0.17001736
231	0xbdd2910b	-0.10281571
232	0xbc8200e8	-0.015869573
233	0xbd6f629e	-0.058443658
234	0xbc9f13a0	-0.019418538
235	0xbdecd1da	-0.115634635
236	0xbead597c	-0.33857334
237	0x3dc55764	0.09635809
238	0xbd7b6da7	-0.06138387
239	0x3e71a937	0.23599707
240	0xbe6ee268	-0.23328555
241	0x3e909b4d	0.28243485
242	0xbe300a18	-0.1719135
243	0xbe2ae905	-0.16690452
244	0xbe2c6702	-0.1683617
245	0xbe036385	-0.12830932
246	0xbdd5914b	-0.10428103
247	0xbdaea7d8	-0.085281074
248	0xbda5b2cd	-0.08090744
249	0x3ce0e8c5	0.027454743
250	0xbe7a796a	-0.24460378
251	0x3e20c565	0.157003
252	0x3dfd0728	0.123548806
253	0x3d1cbbe0	0.03826511
254	0x3d612b34	0.054972842
255	0xbe5dd22f	-0.2166221

bias_ih_l0_reverse f4 [60]
0	0x3e3c05eb	0.18361633
1	0x3e7daf23	0.2477384
2	0x3cfa7059	0.03057115
3	0xbc541407	-0.012944228
4	0x3dabc3e6	0.08386974
5	0xbe0357db	-0.12826483
6	0xbddabd68	-0.106806576
7	0xbe12680e	-0.14297506
8	0xbe02c06a	-0.12768713
9	0x3e2cf746	0.16891202
10	0x3e1f8fb4	0.15582162
11	0x3e131ec3	0.14367203
12	0x3ec7d73d	0.390314
13	0x3e5dcd41	0.2166033
14	0x3e3eb05e	0.18621966
15	0x3d3d2253	0.046175312
16	0xbd027e56	-0.031858765
17	0x3e1aecd6	0.15129408
18	0x3e12e386	0.14344606
19	0x3eb5bd08	0.35495782
20	0x3ac0169e	0.0014655178
21	0xbd91f7a4	-0.07127312
22	0x3d41df10	0.04733187
23	0x3d72b116	0.059250914
24	0xbe7549bd	-0.2395391
25	0x3e24f92a	0.16110674
26	0xbe037798	-0.1283859
27	0x3e4a6dbe	0.19768426
28	0xbd2bb472	-0.041920133
29	0x3e0b4e2f	0.13604043
30	0x3deca6e3	0.115552686
31	0xbc844d26	-0.016150068
32	0x3e4830cd	0.19549866
33	0xbe8c2250	-0.27369928
34	0x3d6e65c9	0.05820254
35	0x3d1adfbd	0.03781103
36	0xbd9abf35	-0.07556001
37	0xbc5d1a28	-0.013495006
38	0xbcc9d139	-0.024635898
39	0xbd64b9a0	-0.05584109
40	0xbe602aec	-0.21891373
41	0xbe08ccf0	-0.13359427
42	0x3db8a0e1	0.0901506
43	0x3d9d4a70	0.076802135
44	0xbdcc6867	-0.09980851
45	0xbe1ee013	-0.15515165
46	0xbd6e3c46	-0.05816295
47	0xbe4a4da2	-0.19756177
48	0x3e10bb18	0.1413387
49	0xbe461595	-0.1934417
50	0xbe8323d1	-0.25613263
51	0x3dfd16c7	0.1235786
52	0x3e1acfd1	0.15118338
53	0x3e916fe5	0.2840568
54	0xbd2fa541	-0.042882208
55	0xbd73cd1e	-0.059521787
56	0xbb48ebcb	-0.0030658122
57	0x3e304a55	0.17215855
58	0xbe78d58d	-0.24300213
59	0x3cedee0a	0.02904417

bias_hh_l0_reverse f4 [60]
0	0x3d845be7	0.064628415
1	0xbd995f0b	-0.07488831
2	0xbd887809	-0.0666352
3	0x3e440733	0.19143371
4	0xbbb3120a	-0.005464797
5	0xbc8390f9	-0.01606034
6	0x3e2c93e8	0.16853297
7	0xbd98a97b	-0.07454201
8	0xbe7820aa	-0.2423121
9	0xbc29464c	-0.0103317015
10	0x3eb44618	0.35209727
11	0x3ea44e75	0.32091108
12	0x3e0514a5	0.12996157
13	0xbe0d4eef	-0.13799642
14	0x3eb09198	0.3448608
15	0x3df1184e	0.11772214
16	0x3e90c7e8	0.28277516
17	0x3e7cb324	0.24677712
18	0x3e22a766	0.1588417
19	0x3e83f0a8	0.25769544
20	0x3e33758f	0.17525314
21	0xbd9a92c2	-0.07547523
22	0xbe2e9302	-0.17048267
23	0xbb80fe2c	-0.0039365496
24	0xbda3b913	-0.079942845
25	0xbdfcd668	-0.12345582
26	0xbdc3a67f	-0.09553241
27	0x3e4779f4	0.19480115
28	0x3e14df40	0.14538288
29	0x3e070726	0.1318632
30	0xbe5dd08a	-0.21661583
31	0x3d57e401	0.052707676
32	0xbe45af2b	-0.19305103
33	0x3d02c8d8	0.03192982
34	0x3e5ac9e7	0.21366082
35	0xbbcdc177	-0.0062791663
36	0x3e02688b	0.12735192
37	0x3d37623a	0.04477141
38	0x3dee6c49	0.116417475
39	0xbe3016b7	-0.17196165
40	0xbd76311e	-0.060105436
41	0x3e854ee2	0.26036745
42	0x3cf92b32	0.030416105
43	0x3e0fa457	0.14027534
44	0x3d513e48	0.051084787
45	0x3e30798e	0.1723387
46	0x3dd294dd	0.102823
47	0x3dcb6234	0.0993084
48	0x3e56433b	0.20924084
49	0xbd35ec62	-0.044414885
50	0xbe502e8c	-0.20330256
51	0x3c678d17	0.0141327595
52	0xbdc6b03c	-0.09701583
53	0xbd9cb38e	-0.07651435
54	0x3de9cd96	0.114161655
55	0x3e136caa	0.14396921
56	0xbd205773	-0.039145898
57	0x3e0c8a9d	0.13724752
58	0x3bfc15f0	0.007693045
59	0x3e2dabc1	0.1696005

weight f4 [20, 40]
0	0x3e98d7ea	0.2985223
1	0xbda2298b	-0.0791808
2	0x3d8aae26	0.067714974
3	0x3e105003	0.14093022
4	0xbc702194	-0.014656443
5	0xbd08b780	-0.033378124
6	0xbe7167e5	-0.23574789
7	0x3e0b6366	0.13612136
8	0xbd9f7f66	-0.07787971
9	0xbe17a583	-0.14809231
10	0x3e3eddf5	0.18639357
11	0xbd6fc88b	-0.058540862
12	0xbc984b8d	-0.018590713
13	0x3e2a8277	0.16651331
14	0x3e7dae16	0.2477344
15	0xbe00d7d1	-0.12582327
16	0x3e2d06b5	0.1689709
17	0x3e4f47bd	0.2024221
18	0x3df457a4	0.119307786
19	0xbe11652b	-0.14198749
20	0xbe6f1883	-0.23349194
21	0x3dea80dd	0.1145036
22	0xbdcfcc73	-0.101464175
23	0xbd077eba	-0.03307984
24	0xbe3b02d6	-0.182628
25	0x3e2e188e	0.17001554
26	0x3ca3663f	0.019946216
27	0x3e33eb01	0.17570116
28	0xbde5bdd2	-0.11217846
29	0x3d83f8a7	0.06443911
30	0xbe3b5c26	-0.1829687
31	0xbca8e3d8	-0.020616457
32	0x3e298bdf	0.16557263
33	0x3db9fd0d	0.09081469
34	0x3ce60d41	0.028082492
35	0x3cd57f85	0.026061783
36	0xbd896c85	-0.067101516
37	0x3ddd0c53	0.10793366
38	0xbd675833	-0.056480598
39	0xbe61c71c	-0.2204861
40	0xbd3fe740	-0.046851397
41	0xbe3d66a0	-0.1849618
42	0xbe57d56d	-0.21077509
43	0xbc3a48a4	-0.011369858
44	0x3e421534	0.18953401
45	0xbe4eaeeb	-0.20183913
46	0xbe36efdd	-0.17864938
47	0x3dc111ed	0.09427247
48	0xbdf289cc	-0.11842689
49	0x3ea7efe4	0.3280021
50	0xbcd12263	-0.025529092
51	0xbcd8e368	-0.026475623
52	0xbe1b49b5	-0.15164836
53	0x3db2f8cd	0.08738861
54	0xbe20a886	-0.15689287
55	0xbc98fa26	-0.018673968
56	0x3db88d01	0.09011269
57	0x3d4963cd	0.049167443
58	0xbd518cd3	-0.05115969
59	0x3db619b0	0.08891618
60	0x3de9e469	0.11420519
61	0x3d7bdefc	0.06149195
62	0xbd14dfe5	-0.036346335
63	0xbe283947	-0.164281
64	0xbbb3791a	-0.005477083
65	0xbde0caad	-0.10976157
66	0xbdbae3fe	-0.09125517
67	0xbe142a6a	-0.14469305
68	0xbde262f4	-0.1105403
69	0x3daf333e	0.085546955
70	0x3d2a5b39	0.041590903
71	0xbd2b628e	-0.041842036
72	0xbde3c870	-0.11122215
73	0x3e125ed6	0.1429399
74	0xbd8d4585	-0.068980254
75	0xbd92e9dd	-0.07173512
76	0xbe3b5d8d	-0.18297406
77	0xbe47d156	-0.19513449
78	0x3d3c504a	0.045975007
79	0xbe0c31ef	-0.13690923
80	0x3d34104c	0.043960854
81	0xbd378ad4	-0.04481013
82	0xbbf2b36d	-0.007406643
83	0xbd093c15	-0.033504564
84	0xbcca97a6	-0.024730515
85	0xbd005dea	-0.031339563
86	0xbe593e84	-0.21215254
87	0x3e719c5e	0.23594806
88	0x3e51295c	0.20425934
89	0xbdedef68	-0.11617929
90	0x3c9eb5be	0.01937377
91	0xbe7ac059	-0.24487437
92	0x3d383af5	0.0449781
93	0x3e87dc5a	0.26535302
94	0x3d8a6bc2	0.067588344
95	0x3d11a762	0.03556002
96	0x3e664f9b	0.22491305
97	0x3de708f1	0.11281002
98	0x3e3e819b	0.18604128
99	0xbe8ebbac	-0.27877557
100	0xbc5f4c52	-0.013629036
101	0xbd890419	-0.06690235
102	0xbdee3e2b	-0.11632951
103	0xbd69fafb	-0.05712412
104	0xbe765e19	-0.24059333
105	0xbc170320	-0.009217054
106	0x3dd03bcb	0.101676546
107	0xbd2a15e5	-0.041524787
108	0xbe15c34f	-0.14625286
109	0x3d6e45a7	0.058171894
110	0xbe3c5838	-0.18393028
111	0xbe1e1f14	-0.15441543
112	0x3dd22157	0.10260265
113	0x3e59ee00	0.21282196
114	0xbe9175c4	-0.2841016
115	0x3d1c7982	0.038201816
116	0xbe7352db	-0.23762076
117	0xbcc5d4cc	-0.024149321
118	0xbe7069ee	-0.23477909
119	0xbe8d0d73	-0.27549323
120	0x3d8a8e83	0.06765463
121	0xbd9344e9	-0.07190878
122	0x3ca33ea7	0.019927336
123	0x3e605dd7	0.21910797
124	0x3e38ee29	0.18059601
125	0x3d3cbcbe	0.046078436
126	0x3df12be4	0.117759496
127	0xbe7bf266	-0.24604186
128	0xbce892c9	-0.028390305
129	0x3dcf17aa	0.101119354
130	0xbd85ceed	-0.065336086
131	0xbdb1835e	-0.086676344
132	0x3dcc438d	0.09973822
133	0xbdf7c1b8	-0.12097496
134	0xbe5ad950	-0.2137196
135	0xbde2812d	-0.110597946
136	0xbd3cb71b	-0.04607306
137	0xbd9b5c6d	-0.07585988
138	0x3e41e695	0.18935616
139	0x3d2b2fae	0.041793518
140	0xbd868c7e	-0.065697655
141	0x3e388e03	0.18022923
142	0xbce415f0	-0.027842492
143	0xbbe5bd39	-0.0070110825
144	0x3d89bc93	0.06725421
145	0x3dd88100	0.1057148
146	0x3d34d550	0.044148743
147	0xbe2af67b	-0.16695587
148	0xbd60a217	-0.05484208
149	0x3c89fc21	0.016843857
150	0xbd8f19a3	-0.06987312
151	0xbd78c6ac	-0.060736343
152	0x3d9576ee	0.07298075
153	0xbc92458e	-0.017855432
154	0x3df132d2	0.11777271
155	0xbe32f15d	-0.17474885
156	0x3da42669	0.08015139
157	0x3e11c815	0.14236481
158	0x3d93893a	0.07203908
159	0x3e09bdda	0.13451329
160	0x3aca63a9	0.0015441078
161	0xbe5257c7	-0.20541297
162	0xbda7e7a8	-0.08198482
163	0x3d9acdfd	0.075588204
164	0x3e3b9524	0.18318611
165	0xbe33f7d3	-0.17575006
166	0xbe375529	-0.1790358
167	0xbdb9d7d0	-0.09074366
168	0x3d7d4dd8	0.061841816
169	0x3e4b7195	0.19867547
170	0x3e8c8d4c	0.2745155
171	0xbdd395a5	-0.10331277
172	0xbe21d0da	-0.15802327
173	0xbe177307	-0.14789973
174	0xbdeed721	-0.11662126
175	0x3d028362	0.031863578
176	0xbdbf84b7	-0.09351485
177	0xbdef1a92	-0.1167499
178	0x3d273c2f	0.04082888
179	0xbe3ae516	-0.18251452
180	0x3db91cb4	0.09038678
181	0xbdf54764	-0.11976507
182	0x3c275d78	0.010215156
183	0xbe3edc4d	-0.18638726
184	0x3e0b00dc	0.13574547
185	0xbdf83af7	-0.12120622
186	0x3c07e456	0.008294186
187	0xbdd6ae86	-0.104825065
188	0x3cd36f81	0.025810005
189	0x3da2fadc	0.07958004
190	0x3ac2f52b	0.0014874091
191	0x3cfe6a33	0.0310565
192	0xbe6c1d7b	-0.23058121
193	0x3da5dc56	0.08098666
194	0xbd8cf27f	-0.0688219
195	0xbc8f9043	-0.017524844
196	0xbdc05228	-0.0939067
197	0xbe3bdfb8	-0.1834706
198	0x3d30d039	0.043167327
199	0x3db60716	0.0888807
200	0xbd777c24	-0.060421124
201	0x3c4381ee	0.011932833
202	0xbd0a3cb9	-0.033749316
203	0x3e0516d2	0.12996987
204	0xbe150637	-0.14553152
205	0xbda0a0b9	-0.078431554
206	0x3de484e0	0.111581564
207	0xbe3024d3	-0.17201547
208	0xbe0d8cd7	-0.13823257
209	0xbe18b6e0	-0.14913511
210	0xbe6483f5	-0.22315963
211	0x3e4436bf	0.19161509
212	0x3df66d62	0.12032582
213	0xbdfaabdc	-0.12239811
214	0xbd86dede	-0.06585477
215	0x3e905404	0.281891
216	0xbd99fd04	-0.07518962
217	0xbe71029a	-0.23536149
218	0xbc605c8c	-0.01369394
219	0xbded920d	-0.116001226
220	0x3d6e2c0d	0.05814748
221	0x3da45d46	0.08025603
222	0x3e439c9b	0.19102709
223	0x3dded436	0.1088032
224	0xbdc16ab5	-0.09444181
225	0xbe6b3ed5	-0.22973187
226	0xbcac4973	-0.021031117
227	0x3dea1d96	0.11431424
228	0x3dddbf7f	0.108275406
229	0x3d02e962	0.031960852
230	0xbe30b6bd	-0.17257209
231	0xbda468dd	-0.080278136
232	0x3e078604	0.13234717
233	0xbe016a4d	-0.12638207
234	0xbda60775	-0.08106891
235	0x3da3ce07	0.07998281
236	0xbd96e6e1	-0.073682554
237	0x3e8b2f08	0.2718432
238	0xbda32e73	-0.07967844
239	0xbd265da1	-0.040616635
240	0x3d67ee40	0.056623697
241	0xbe277dea	-0.16356626
242	0xbe0d3265	-0.13788755
243	0x3e0d59da	0.13803807
244	0x3bc81594	0.006106088
245	0xbe68f481	-0.22749521
246	0xbe84206e	-0.25805992
247	0xbd805454	-0.06266084
248	0xbc665881	-0.014059187
249	0x3c57fe51	0.013183192
250	0x3e3789ab	0.1792361
251	0xbbd1edb1	-0.006406509
252	0xbe62685d	-0.22110124
253	0xbdfeb2cc	-0.124364465
254	0x3d13e3d6	0.036105953
255	0xbe55630f	-0.20838569

bias f4 [20]
0	0x3d65e9ed	0.056131292
1	0xbd9b63d7	-0.07587402
2	0x3db93ce9	0.09044821
3	0x3d42c17f	0.047547814
4	0x3e130261	0.14356376
5	0xbcc7142f	-0.024301616
6	0x3e028bca	0.12748638
7	0xbd3a9eaa	-0.04556147
8	0xbcd4ac32	-0.025961015
9	0x3e070bd2	0.13188103
10	0x3b3fc3ac	0.0029260917
11	0x3ce2ba19	0.027676629
12	0xbc4c1330	-0.0124557465
13	0x3db49e10	0.088192105
14	0x3e210596	0.15724787
15	0x3d0eb078	0.034836262
16	0xbd754869	-0.05988351
17	0x3e585f31	0.21130063
18	0x3dc8c942	0.09804012
19	0x3d37c4b8	0.04486534
